{"format": "graph-model", "generatedBy": "2.13.1", "convertedBy": "TensorFlow.js Converter v4.19.0", "signature": {"outputs": {"Identity_1:0": {"name": "Identity_1:0"}, "Identity:0": {"name": "Identity:0"}}}, "modelTopology": {"node": [{"name": "ConstantFolding/PartitionedCall/model_19/tf.math.divide/truediv_recip", "op": "Const", "attr": {"value": {"tensor": {"dtype": "DT_FLOAT", "tensorShape": {"dim": [{"size": "1"}, {"size": "1"}, {"size": "1"}]}}}, "dtype": {"type": "DT_FLOAT"}}}, {"name": "15434", "op": "Const", "attr": {"dtype": {"type": "DT_FLOAT"}, "value": {"tensor": {"dtype": "DT_FLOAT", "tensorShape": {"dim": [{"size": "1"}, {"size": "2"}, {"size": "8400"}]}}}}}, {"name": "15420", "op": "Const", "attr": {"dtype": {"type": "DT_INT64"}, "value": {"tensor": {"dtype": "DT_INT64", "tensorShape": {"dim": [{"size": "3"}]}}}}}, {"name": "15422", "op": "Const", "attr": {"value": {"tensor": {"dtype": "DT_INT64", "tensorShape": {"dim": [{"size": "3"}]}}}, "dtype": {"type": "DT_INT64"}}}, {"name": "PartitionedCall/model_19/tf.strided_slice_19/ones_like", "op": "Const", "attr": {"dtype": {"type": "DT_INT64"}, "value": {"tensor": {"dtype": "DT_INT64", "tensorShape": {"dim": [{"size": "3"}]}}}}}, {"name": "15436", "op": "Const", "attr": {"dtype": {"type": "DT_FLOAT"}, "value": {"tensor": {"dtype": "DT_FLOAT", "tensorShape": {"dim": [{"size": "1"}, {"size": "2"}, {"size": "8400"}]}}}}}, {"name": "15380", "op": "Const", "attr": {"value": {"tensor": {"dtype": "DT_INT64", "tensorShape": {"dim": [{"size": "3"}]}}}, "dtype": {"type": "DT_INT64"}}}, {"name": "15382", "op": "Const", "attr": {"value": {"tensor": {"dtype": "DT_INT64", "tensorShape": {"dim": [{"size": "3"}]}}}, "dtype": {"type": "DT_INT64"}}}, {"name": "PartitionedCall/model_19/tf.strided_slice_16/StridedSlice/strides", "op": "Const", "attr": {"value": {"tensor": {"dtype": "DT_INT64", "tensorShape": {"dim": [{"size": "3"}]}}}, "dtype": {"type": "DT_INT64"}}}, {"name": "PartitionedCall/model_19/tf.reshape_20/Reshape/shape", "op": "Const", "attr": {"dtype": {"type": "DT_INT32"}, "value": {"tensor": {"dtype": "DT_INT32", "tensorShape": {"dim": [{"size": "4"}]}}}}}, {"name": "PartitionedCall/model_19/tf.compat.v1.transpose_34/transpose/perm", "op": "Const", "attr": {"value": {"tensor": {"dtype": "DT_INT32", "tensorShape": {"dim": [{"size": "4"}]}}}, "dtype": {"type": "DT_INT32"}}}, {"name": "PartitionedCall/model_19/tf.compat.v1.transpose_35/transpose/perm", "op": "Const", "attr": {"dtype": {"type": "DT_INT32"}, "value": {"tensor": {"dtype": "DT_INT32", "tensorShape": {"dim": [{"size": "4"}]}}}}}, {"name": "15408", "op": "Const", "attr": {"value": {"tensor": {"dtype": "DT_FLOAT", "tensorShape": {"dim": [{"size": "1"}, {"size": "1"}, {"size": "16"}, {"size": "1"}]}}}, "dtype": {"type": "DT_FLOAT"}}}, {"name": "PartitionedCall/model_19/tf.compat.v1.transpose_40/transpose/perm", "op": "Const", "attr": {"value": {"tensor": {"dtype": "DT_INT32", "tensorShape": {"dim": [{"size": "4"}]}}}, "dtype": {"type": "DT_INT32"}}}, {"name": "PartitionedCall/model_19/tf.reshape_23/Reshape/shape", "op": "Const", "attr": {"dtype": {"type": "DT_INT32"}, "value": {"tensor": {"dtype": "DT_INT32", "tensorShape": {"dim": [{"size": "3"}]}}}}}, {"name": "15424", "op": "Const", "attr": {"value": {"tensor": {"dtype": "DT_INT64", "tensorShape": {"dim": [{"size": "3"}]}}}, "dtype": {"type": "DT_INT64"}}}, {"name": "15426", "op": "Const", "attr": {"dtype": {"type": "DT_INT64"}, "value": {"tensor": {"dtype": "DT_INT64", "tensorShape": {"dim": [{"size": "3"}]}}}}}, {"name": "PartitionedCall/model_19/tf.strided_slice_18/ones_like", "op": "Const", "attr": {"dtype": {"type": "DT_INT64"}, "value": {"tensor": {"dtype": "DT_INT64", "tensorShape": {"dim": [{"size": "3"}]}}}}}, {"name": "PartitionedCall/model_19/tf.concat_21/concat/axis", "op": "Const", "attr": {"value": {"tensor": {"dtype": "DT_INT32", "tensorShape": {}}}, "dtype": {"type": "DT_INT32"}}}, {"name": "PartitionedCall/model_19/tf.math.multiply_288/Mul/y", "op": "Const", "attr": {"dtype": {"type": "DT_FLOAT"}, "value": {"tensor": {"dtype": "DT_FLOAT", "tensorShape": {"dim": [{"size": "1"}, {"size": "1"}, {"size": "8400"}]}}}}}, {"name": "15318", "op": "Const", "attr": {"dtype": {"type": "DT_FLOAT"}, "value": {"tensor": {"dtype": "DT_FLOAT", "tensorShape": {"dim": [{"size": "3"}, {"size": "3"}, {"size": "64"}, {"size": "64"}]}}}}}, {"name": "15330", "op": "Const", "attr": {"value": {"tensor": {"dtype": "DT_FLOAT", "tensorShape": {"dim": [{"size": "64"}]}}}, "dtype": {"type": "DT_FLOAT"}}}, {"name": "15342", "op": "Const", "attr": {"dtype": {"type": "DT_FLOAT"}, "value": {"tensor": {"dtype": "DT_FLOAT", "tensorShape": {"dim": [{"size": "3"}, {"size": "3"}, {"size": "64"}, {"size": "64"}]}}}}}, {"name": "15354", "op": "Const", "attr": {"dtype": {"type": "DT_FLOAT"}, "value": {"tensor": {"dtype": "DT_FLOAT", "tensorShape": {"dim": [{"size": "64"}]}}}}}, {"name": "15366", "op": "Const", "attr": {"value": {"tensor": {"dtype": "DT_FLOAT", "tensorShape": {"dim": [{"size": "1"}, {"size": "1"}, {"size": "64"}, {"size": "64"}]}}}, "dtype": {"type": "DT_FLOAT"}}}, {"name": "15376", "op": "Const", "attr": {"dtype": {"type": "DT_FLOAT"}, "value": {"tensor": {"dtype": "DT_FLOAT", "tensorShape": {"dim": [{"size": "64"}]}}}}}, {"name": "15316", "op": "Const", "attr": {"value": {"tensor": {"dtype": "DT_FLOAT", "tensorShape": {"dim": [{"size": "3"}, {"size": "3"}, {"size": "64"}, {"size": "64"}]}}}, "dtype": {"type": "DT_FLOAT"}}}, {"name": "15328", "op": "Const", "attr": {"dtype": {"type": "DT_FLOAT"}, "value": {"tensor": {"dtype": "DT_FLOAT", "tensorShape": {"dim": [{"size": "64"}]}}}}}, {"name": "15340", "op": "Const", "attr": {"dtype": {"type": "DT_FLOAT"}, "value": {"tensor": {"dtype": "DT_FLOAT", "tensorShape": {"dim": [{"size": "3"}, {"size": "3"}, {"size": "64"}, {"size": "64"}]}}}}}, {"name": "15352", "op": "Const", "attr": {"value": {"tensor": {"dtype": "DT_FLOAT", "tensorShape": {"dim": [{"size": "64"}]}}}, "dtype": {"type": "DT_FLOAT"}}}, {"name": "15364", "op": "Const", "attr": {"value": {"tensor": {"dtype": "DT_FLOAT", "tensorShape": {"dim": [{"size": "1"}, {"size": "1"}, {"size": "64"}, {"size": "1"}]}}}, "dtype": {"type": "DT_FLOAT"}}}, {"name": "15378", "op": "Const", "attr": {"dtype": {"type": "DT_FLOAT"}, "value": {"tensor": {"dtype": "DT_FLOAT", "tensorShape": {"dim": [{"size": "1"}]}}}}}, {"name": "PartitionedCall/model_19/tf.concat_10/concat/axis", "op": "Const", "attr": {"value": {"tensor": {"dtype": "DT_INT32", "tensorShape": {}}}, "dtype": {"type": "DT_INT32"}}}, {"name": "PartitionedCall/model_19/tf.compat.v1.transpose_7/transpose/perm", "op": "Const", "attr": {"dtype": {"type": "DT_INT32"}, "value": {"tensor": {"dtype": "DT_INT32", "tensorShape": {"dim": [{"size": "4"}]}}}}}, {"name": "PartitionedCall/model_19/tf.reshape_5/Reshape/shape", "op": "Const", "attr": {"dtype": {"type": "DT_INT32"}, "value": {"tensor": {"dtype": "DT_INT32", "tensorShape": {"dim": [{"size": "3"}]}}}}}, {"name": "15314", "op": "Const", "attr": {"value": {"tensor": {"dtype": "DT_FLOAT", "tensorShape": {"dim": [{"size": "3"}, {"size": "3"}, {"size": "128"}, {"size": "64"}]}}}, "dtype": {"type": "DT_FLOAT"}}}, {"name": "15326", "op": "Const", "attr": {"value": {"tensor": {"dtype": "DT_FLOAT", "tensorShape": {"dim": [{"size": "64"}]}}}, "dtype": {"type": "DT_FLOAT"}}}, {"name": "15338", "op": "Const", "attr": {"value": {"tensor": {"dtype": "DT_FLOAT", "tensorShape": {"dim": [{"size": "3"}, {"size": "3"}, {"size": "64"}, {"size": "64"}]}}}, "dtype": {"type": "DT_FLOAT"}}}, {"name": "15350", "op": "Const", "attr": {"dtype": {"type": "DT_FLOAT"}, "value": {"tensor": {"dtype": "DT_FLOAT", "tensorShape": {"dim": [{"size": "64"}]}}}}}, {"name": "15362", "op": "Const", "attr": {"value": {"tensor": {"dtype": "DT_FLOAT", "tensorShape": {"dim": [{"size": "1"}, {"size": "1"}, {"size": "64"}, {"size": "64"}]}}}, "dtype": {"type": "DT_FLOAT"}}}, {"name": "15372", "op": "Const", "attr": {"dtype": {"type": "DT_FLOAT"}, "value": {"tensor": {"dtype": "DT_FLOAT", "tensorShape": {"dim": [{"size": "64"}]}}}}}, {"name": "15312", "op": "Const", "attr": {"dtype": {"type": "DT_FLOAT"}, "value": {"tensor": {"dtype": "DT_FLOAT", "tensorShape": {"dim": [{"size": "3"}, {"size": "3"}, {"size": "128"}, {"size": "64"}]}}}}}, {"name": "15324", "op": "Const", "attr": {"dtype": {"type": "DT_FLOAT"}, "value": {"tensor": {"dtype": "DT_FLOAT", "tensorShape": {"dim": [{"size": "64"}]}}}}}, {"name": "15336", "op": "Const", "attr": {"dtype": {"type": "DT_FLOAT"}, "value": {"tensor": {"dtype": "DT_FLOAT", "tensorShape": {"dim": [{"size": "3"}, {"size": "3"}, {"size": "64"}, {"size": "64"}]}}}}}, {"name": "15348", "op": "Const", "attr": {"dtype": {"type": "DT_FLOAT"}, "value": {"tensor": {"dtype": "DT_FLOAT", "tensorShape": {"dim": [{"size": "64"}]}}}}}, {"name": "15360", "op": "Const", "attr": {"value": {"tensor": {"dtype": "DT_FLOAT", "tensorShape": {"dim": [{"size": "1"}, {"size": "1"}, {"size": "64"}, {"size": "1"}]}}}, "dtype": {"type": "DT_FLOAT"}}}, {"name": "15374", "op": "Const", "attr": {"value": {"tensor": {"dtype": "DT_FLOAT", "tensorShape": {"dim": [{"size": "1"}]}}}, "dtype": {"type": "DT_FLOAT"}}}, {"name": "PartitionedCall/model_19/tf.concat_13/concat/axis", "op": "Const", "attr": {"value": {"tensor": {"dtype": "DT_INT32", "tensorShape": {}}}, "dtype": {"type": "DT_INT32"}}}, {"name": "PartitionedCall/model_19/tf.compat.v1.transpose_17/transpose/perm", "op": "Const", "attr": {"dtype": {"type": "DT_INT32"}, "value": {"tensor": {"dtype": "DT_INT32", "tensorShape": {"dim": [{"size": "4"}]}}}}}, {"name": "PartitionedCall/model_19/tf.reshape_11/Reshape/shape", "op": "Const", "attr": {"dtype": {"type": "DT_INT32"}, "value": {"tensor": {"dtype": "DT_INT32", "tensorShape": {"dim": [{"size": "3"}]}}}}}, {"name": "15310", "op": "Const", "attr": {"value": {"tensor": {"dtype": "DT_FLOAT", "tensorShape": {"dim": [{"size": "3"}, {"size": "3"}, {"size": "256"}, {"size": "64"}]}}}, "dtype": {"type": "DT_FLOAT"}}}, {"name": "15322", "op": "Const", "attr": {"dtype": {"type": "DT_FLOAT"}, "value": {"tensor": {"dtype": "DT_FLOAT", "tensorShape": {"dim": [{"size": "64"}]}}}}}, {"name": "15334", "op": "Const", "attr": {"dtype": {"type": "DT_FLOAT"}, "value": {"tensor": {"dtype": "DT_FLOAT", "tensorShape": {"dim": [{"size": "3"}, {"size": "3"}, {"size": "64"}, {"size": "64"}]}}}}}, {"name": "15346", "op": "Const", "attr": {"dtype": {"type": "DT_FLOAT"}, "value": {"tensor": {"dtype": "DT_FLOAT", "tensorShape": {"dim": [{"size": "64"}]}}}}}, {"name": "15358", "op": "Const", "attr": {"dtype": {"type": "DT_FLOAT"}, "value": {"tensor": {"dtype": "DT_FLOAT", "tensorShape": {"dim": [{"size": "1"}, {"size": "1"}, {"size": "64"}, {"size": "64"}]}}}}}, {"name": "15368", "op": "Const", "attr": {"dtype": {"type": "DT_FLOAT"}, "value": {"tensor": {"dtype": "DT_FLOAT", "tensorShape": {"dim": [{"size": "64"}]}}}}}, {"name": "15308", "op": "Const", "attr": {"dtype": {"type": "DT_FLOAT"}, "value": {"tensor": {"dtype": "DT_FLOAT", "tensorShape": {"dim": [{"size": "3"}, {"size": "3"}, {"size": "256"}, {"size": "64"}]}}}}}, {"name": "15320", "op": "Const", "attr": {"dtype": {"type": "DT_FLOAT"}, "value": {"tensor": {"dtype": "DT_FLOAT", "tensorShape": {"dim": [{"size": "64"}]}}}}}, {"name": "15332", "op": "Const", "attr": {"dtype": {"type": "DT_FLOAT"}, "value": {"tensor": {"dtype": "DT_FLOAT", "tensorShape": {"dim": [{"size": "3"}, {"size": "3"}, {"size": "64"}, {"size": "64"}]}}}}}, {"name": "15344", "op": "Const", "attr": {"dtype": {"type": "DT_FLOAT"}, "value": {"tensor": {"dtype": "DT_FLOAT", "tensorShape": {"dim": [{"size": "64"}]}}}}}, {"name": "15356", "op": "Const", "attr": {"value": {"tensor": {"dtype": "DT_FLOAT", "tensorShape": {"dim": [{"size": "1"}, {"size": "1"}, {"size": "64"}, {"size": "1"}]}}}, "dtype": {"type": "DT_FLOAT"}}}, {"name": "15370", "op": "Const", "attr": {"value": {"tensor": {"dtype": "DT_FLOAT", "tensorShape": {"dim": [{"size": "1"}]}}}, "dtype": {"type": "DT_FLOAT"}}}, {"name": "PartitionedCall/model_19/tf.concat_15/concat/axis", "op": "Const", "attr": {"value": {"tensor": {"dtype": "DT_INT32", "tensorShape": {}}}, "dtype": {"type": "DT_INT32"}}}, {"name": "PartitionedCall/model_19/tf.compat.v1.transpose_27/transpose/perm", "op": "Const", "attr": {"dtype": {"type": "DT_INT32"}, "value": {"tensor": {"dtype": "DT_INT32", "tensorShape": {"dim": [{"size": "4"}]}}}}}, {"name": "PartitionedCall/model_19/tf.reshape_17/Reshape/shape", "op": "Const", "attr": {"dtype": {"type": "DT_INT32"}, "value": {"tensor": {"dtype": "DT_INT32", "tensorShape": {"dim": [{"size": "3"}]}}}}}, {"name": "PartitionedCall/model_19/tf.concat_17/concat/axis", "op": "Const", "attr": {"value": {"tensor": {"dtype": "DT_INT32", "tensorShape": {}}}, "dtype": {"type": "DT_INT32"}}}, {"name": "15450", "op": "Const", "attr": {"value": {"tensor": {"dtype": "DT_INT64", "tensorShape": {"dim": [{"size": "3"}]}}}, "dtype": {"type": "DT_INT64"}}}, {"name": "15452", "op": "Const", "attr": {"value": {"tensor": {"dtype": "DT_INT64", "tensorShape": {"dim": [{"size": "3"}]}}}, "dtype": {"type": "DT_INT64"}}}, {"name": "PartitionedCall/model_19/tf.strided_slice_17/StridedSlice/strides", "op": "Const", "attr": {"dtype": {"type": "DT_INT64"}, "value": {"tensor": {"dtype": "DT_INT64", "tensorShape": {"dim": [{"size": "3"}]}}}}}, {"name": "15390", "op": "Const", "attr": {"value": {"tensor": {"dtype": "DT_FLOAT", "tensorShape": {"dim": [{"size": "3"}, {"size": "3"}, {"size": "64"}, {"size": "32"}]}}}, "dtype": {"type": "DT_FLOAT"}}}, {"name": "15398", "op": "Const", "attr": {"value": {"tensor": {"dtype": "DT_FLOAT", "tensorShape": {"dim": [{"size": "32"}]}}}, "dtype": {"type": "DT_FLOAT"}}}, {"name": "15406", "op": "Const", "attr": {"dtype": {"type": "DT_FLOAT"}, "value": {"tensor": {"dtype": "DT_FLOAT", "tensorShape": {"dim": [{"size": "3"}, {"size": "3"}, {"size": "32"}, {"size": "32"}]}}}}}, {"name": "15414", "op": "Const", "attr": {"dtype": {"type": "DT_FLOAT"}, "value": {"tensor": {"dtype": "DT_FLOAT", "tensorShape": {"dim": [{"size": "32"}]}}}}}, {"name": "15432", "op": "Const", "attr": {"value": {"tensor": {"dtype": "DT_FLOAT", "tensorShape": {"dim": [{"size": "1"}, {"size": "1"}, {"size": "32"}, {"size": "32"}]}}}, "dtype": {"type": "DT_FLOAT"}}}, {"name": "15442", "op": "Const", "attr": {"value": {"tensor": {"dtype": "DT_FLOAT", "tensorShape": {"dim": [{"size": "32"}]}}}, "dtype": {"type": "DT_FLOAT"}}}, {"name": "PartitionedCall/model_19/tf.compat.v1.transpose_2/transpose/perm", "op": "Const", "attr": {"dtype": {"type": "DT_INT32"}, "value": {"tensor": {"dtype": "DT_INT32", "tensorShape": {"dim": [{"size": "4"}]}}}}}, {"name": "PartitionedCall/model_19/tf.reshape_2/Reshape/shape", "op": "Const", "attr": {"value": {"tensor": {"dtype": "DT_INT32", "tensorShape": {"dim": [{"size": "3"}]}}}, "dtype": {"type": "DT_INT32"}}}, {"name": "15388", "op": "Const", "attr": {"value": {"tensor": {"dtype": "DT_FLOAT", "tensorShape": {"dim": [{"size": "3"}, {"size": "3"}, {"size": "128"}, {"size": "32"}]}}}, "dtype": {"type": "DT_FLOAT"}}}, {"name": "15396", "op": "Const", "attr": {"value": {"tensor": {"dtype": "DT_FLOAT", "tensorShape": {"dim": [{"size": "32"}]}}}, "dtype": {"type": "DT_FLOAT"}}}, {"name": "15404", "op": "Const", "attr": {"dtype": {"type": "DT_FLOAT"}, "value": {"tensor": {"dtype": "DT_FLOAT", "tensorShape": {"dim": [{"size": "3"}, {"size": "3"}, {"size": "32"}, {"size": "32"}]}}}}}, {"name": "15412", "op": "Const", "attr": {"dtype": {"type": "DT_FLOAT"}, "value": {"tensor": {"dtype": "DT_FLOAT", "tensorShape": {"dim": [{"size": "32"}]}}}}}, {"name": "15430", "op": "Const", "attr": {"dtype": {"type": "DT_FLOAT"}, "value": {"tensor": {"dtype": "DT_FLOAT", "tensorShape": {"dim": [{"size": "1"}, {"size": "1"}, {"size": "32"}, {"size": "32"}]}}}}}, {"name": "15440", "op": "Const", "attr": {"dtype": {"type": "DT_FLOAT"}, "value": {"tensor": {"dtype": "DT_FLOAT", "tensorShape": {"dim": [{"size": "32"}]}}}}}, {"name": "PartitionedCall/model_19/tf.compat.v1.transpose_12/transpose/perm", "op": "Const", "attr": {"value": {"tensor": {"dtype": "DT_INT32", "tensorShape": {"dim": [{"size": "4"}]}}}, "dtype": {"type": "DT_INT32"}}}, {"name": "PartitionedCall/model_19/tf.reshape_8/Reshape/shape", "op": "Const", "attr": {"dtype": {"type": "DT_INT32"}, "value": {"tensor": {"dtype": "DT_INT32", "tensorShape": {"dim": [{"size": "3"}]}}}}}, {"name": "15300", "op": "Const", "attr": {"value": {"tensor": {"dtype": "DT_INT64", "tensorShape": {"dim": [{"size": "4"}]}}}, "dtype": {"type": "DT_INT64"}}}, {"name": "15302", "op": "Const", "attr": {"value": {"tensor": {"dtype": "DT_INT64", "tensorShape": {"dim": [{"size": "4"}]}}}, "dtype": {"type": "DT_INT64"}}}, {"name": "PartitionedCall/model_19/tf.strided_slice_14/ones_like", "op": "Const", "attr": {"value": {"tensor": {"dtype": "DT_INT64", "tensorShape": {"dim": [{"size": "4"}]}}}, "dtype": {"type": "DT_INT64"}}}, {"name": "15270", "op": "Const", "attr": {"value": {"tensor": {"dtype": "DT_INT64", "tensorShape": {"dim": [{"size": "4"}]}}}, "dtype": {"type": "DT_INT64"}}}, {"name": "15272", "op": "Const", "attr": {"dtype": {"type": "DT_INT64"}, "value": {"tensor": {"dtype": "DT_INT64", "tensorShape": {"dim": [{"size": "4"}]}}}}}, {"name": "PartitionedCall/model_19/tf.strided_slice_12/ones_like", "op": "Const", "attr": {"value": {"tensor": {"dtype": "DT_INT64", "tensorShape": {"dim": [{"size": "4"}]}}}, "dtype": {"type": "DT_INT64"}}}, {"name": "15248", "op": "Const", "attr": {"dtype": {"type": "DT_INT32"}, "value": {"tensor": {"dtype": "DT_INT32", "tensorShape": {"dim": [{"size": "4"}, {"size": "2"}]}}}}}, {"name": "15250", "op": "Const", "attr": {"value": {"tensor": {"dtype": "DT_FLOAT", "tensorShape": {"dim": [{"size": "3"}, {"size": "3"}, {"size": "64"}, {"size": "64"}]}}}, "dtype": {"type": "DT_FLOAT"}}}, {"name": "15252", "op": "Const", "attr": {"dtype": {"type": "DT_FLOAT"}, "value": {"tensor": {"dtype": "DT_FLOAT", "tensorShape": {"dim": [{"size": "64"}]}}}}}, {"name": "PartitionedCall/model_19/tf.concat_9/concat/axis", "op": "Const", "attr": {"dtype": {"type": "DT_INT32"}, "value": {"tensor": {"dtype": "DT_INT32", "tensorShape": {}}}}}, {"name": "15254", "op": "Const", "attr": {"value": {"tensor": {"dtype": "DT_FLOAT", "tensorShape": {"dim": [{"size": "1"}, {"size": "1"}, {"size": "192"}, {"size": "128"}]}}}, "dtype": {"type": "DT_FLOAT"}}}, {"name": "15256", "op": "Const", "attr": {"value": {"tensor": {"dtype": "DT_FLOAT", "tensorShape": {"dim": [{"size": "128"}]}}}, "dtype": {"type": "DT_FLOAT"}}}, {"name": "15258", "op": "Const", "attr": {"value": {"tensor": {"dtype": "DT_INT64", "tensorShape": {"dim": [{"size": "4"}]}}}, "dtype": {"type": "DT_INT64"}}}, {"name": "15260", "op": "Const", "attr": {"value": {"tensor": {"dtype": "DT_INT64", "tensorShape": {"dim": [{"size": "4"}]}}}, "dtype": {"type": "DT_INT64"}}}, {"name": "PartitionedCall/model_19/tf.strided_slice_13/ones_like", "op": "Const", "attr": {"value": {"tensor": {"dtype": "DT_INT64", "tensorShape": {"dim": [{"size": "4"}]}}}, "dtype": {"type": "DT_INT64"}}}, {"name": "15262", "op": "Const", "attr": {"value": {"tensor": {"dtype": "DT_FLOAT", "tensorShape": {"dim": [{"size": "3"}, {"size": "3"}, {"size": "64"}, {"size": "64"}]}}}, "dtype": {"type": "DT_FLOAT"}}}, {"name": "15264", "op": "Const", "attr": {"dtype": {"type": "DT_FLOAT"}, "value": {"tensor": {"dtype": "DT_FLOAT", "tensorShape": {"dim": [{"size": "64"}]}}}}}, {"name": "15266", "op": "Const", "attr": {"dtype": {"type": "DT_FLOAT"}, "value": {"tensor": {"dtype": "DT_FLOAT", "tensorShape": {"dim": [{"size": "3"}, {"size": "3"}, {"size": "64"}, {"size": "64"}]}}}}}, {"name": "15268", "op": "Const", "attr": {"value": {"tensor": {"dtype": "DT_FLOAT", "tensorShape": {"dim": [{"size": "64"}]}}}, "dtype": {"type": "DT_FLOAT"}}}, {"name": "PartitionedCall/model_19/tf.concat_11/concat/axis", "op": "Const", "attr": {"dtype": {"type": "DT_INT32"}, "value": {"tensor": {"dtype": "DT_INT32", "tensorShape": {}}}}}, {"name": "15274", "op": "Const", "attr": {"value": {"tensor": {"dtype": "DT_FLOAT", "tensorShape": {"dim": [{"size": "1"}, {"size": "1"}, {"size": "192"}, {"size": "128"}]}}}, "dtype": {"type": "DT_FLOAT"}}}, {"name": "15276", "op": "Const", "attr": {"dtype": {"type": "DT_FLOAT"}, "value": {"tensor": {"dtype": "DT_FLOAT", "tensorShape": {"dim": [{"size": "128"}]}}}}}, {"name": "15278", "op": "Const", "attr": {"dtype": {"type": "DT_INT32"}, "value": {"tensor": {"dtype": "DT_INT32", "tensorShape": {"dim": [{"size": "4"}, {"size": "2"}]}}}}}, {"name": "15280", "op": "Const", "attr": {"value": {"tensor": {"dtype": "DT_FLOAT", "tensorShape": {"dim": [{"size": "3"}, {"size": "3"}, {"size": "128"}, {"size": "128"}]}}}, "dtype": {"type": "DT_FLOAT"}}}, {"name": "15282", "op": "Const", "attr": {"value": {"tensor": {"dtype": "DT_FLOAT", "tensorShape": {"dim": [{"size": "128"}]}}}, "dtype": {"type": "DT_FLOAT"}}}, {"name": "PartitionedCall/model_19/tf.concat_12/concat/axis", "op": "Const", "attr": {"value": {"tensor": {"dtype": "DT_INT32", "tensorShape": {}}}, "dtype": {"type": "DT_INT32"}}}, {"name": "15284", "op": "Const", "attr": {"value": {"tensor": {"dtype": "DT_FLOAT", "tensorShape": {"dim": [{"size": "1"}, {"size": "1"}, {"size": "384"}, {"size": "256"}]}}}, "dtype": {"type": "DT_FLOAT"}}}, {"name": "15286", "op": "Const", "attr": {"dtype": {"type": "DT_FLOAT"}, "value": {"tensor": {"dtype": "DT_FLOAT", "tensorShape": {"dim": [{"size": "256"}]}}}}}, {"name": "15288", "op": "Const", "attr": {"value": {"tensor": {"dtype": "DT_INT64", "tensorShape": {"dim": [{"size": "4"}]}}}, "dtype": {"type": "DT_INT64"}}}, {"name": "15290", "op": "Const", "attr": {"value": {"tensor": {"dtype": "DT_INT64", "tensorShape": {"dim": [{"size": "4"}]}}}, "dtype": {"type": "DT_INT64"}}}, {"name": "PartitionedCall/model_19/tf.strided_slice_15/ones_like", "op": "Const", "attr": {"dtype": {"type": "DT_INT64"}, "value": {"tensor": {"dtype": "DT_INT64", "tensorShape": {"dim": [{"size": "4"}]}}}}}, {"name": "15292", "op": "Const", "attr": {"dtype": {"type": "DT_FLOAT"}, "value": {"tensor": {"dtype": "DT_FLOAT", "tensorShape": {"dim": [{"size": "3"}, {"size": "3"}, {"size": "128"}, {"size": "128"}]}}}}}, {"name": "15294", "op": "Const", "attr": {"value": {"tensor": {"dtype": "DT_FLOAT", "tensorShape": {"dim": [{"size": "128"}]}}}, "dtype": {"type": "DT_FLOAT"}}}, {"name": "15296", "op": "Const", "attr": {"value": {"tensor": {"dtype": "DT_FLOAT", "tensorShape": {"dim": [{"size": "3"}, {"size": "3"}, {"size": "128"}, {"size": "128"}]}}}, "dtype": {"type": "DT_FLOAT"}}}, {"name": "15298", "op": "Const", "attr": {"dtype": {"type": "DT_FLOAT"}, "value": {"tensor": {"dtype": "DT_FLOAT", "tensorShape": {"dim": [{"size": "128"}]}}}}}, {"name": "PartitionedCall/model_19/tf.concat_14/concat/axis", "op": "Const", "attr": {"value": {"tensor": {"dtype": "DT_INT32", "tensorShape": {}}}, "dtype": {"type": "DT_INT32"}}}, {"name": "15304", "op": "Const", "attr": {"dtype": {"type": "DT_FLOAT"}, "value": {"tensor": {"dtype": "DT_FLOAT", "tensorShape": {"dim": [{"size": "1"}, {"size": "1"}, {"size": "384"}, {"size": "256"}]}}}}}, {"name": "15306", "op": "Const", "attr": {"dtype": {"type": "DT_FLOAT"}, "value": {"tensor": {"dtype": "DT_FLOAT", "tensorShape": {"dim": [{"size": "256"}]}}}}}, {"name": "15386", "op": "Const", "attr": {"value": {"tensor": {"dtype": "DT_FLOAT", "tensorShape": {"dim": [{"size": "3"}, {"size": "3"}, {"size": "256"}, {"size": "32"}]}}}, "dtype": {"type": "DT_FLOAT"}}}, {"name": "15394", "op": "Const", "attr": {"dtype": {"type": "DT_FLOAT"}, "value": {"tensor": {"dtype": "DT_FLOAT", "tensorShape": {"dim": [{"size": "32"}]}}}}}, {"name": "15402", "op": "Const", "attr": {"value": {"tensor": {"dtype": "DT_FLOAT", "tensorShape": {"dim": [{"size": "3"}, {"size": "3"}, {"size": "32"}, {"size": "32"}]}}}, "dtype": {"type": "DT_FLOAT"}}}, {"name": "15410", "op": "Const", "attr": {"value": {"tensor": {"dtype": "DT_FLOAT", "tensorShape": {"dim": [{"size": "32"}]}}}, "dtype": {"type": "DT_FLOAT"}}}, {"name": "15428", "op": "Const", "attr": {"value": {"tensor": {"dtype": "DT_FLOAT", "tensorShape": {"dim": [{"size": "1"}, {"size": "1"}, {"size": "32"}, {"size": "32"}]}}}, "dtype": {"type": "DT_FLOAT"}}}, {"name": "15438", "op": "Const", "attr": {"value": {"tensor": {"dtype": "DT_FLOAT", "tensorShape": {"dim": [{"size": "32"}]}}}, "dtype": {"type": "DT_FLOAT"}}}, {"name": "PartitionedCall/model_19/tf.compat.v1.transpose_22/transpose/perm", "op": "Const", "attr": {"dtype": {"type": "DT_INT32"}, "value": {"tensor": {"dtype": "DT_INT32", "tensorShape": {"dim": [{"size": "4"}]}}}}}, {"name": "PartitionedCall/model_19/tf.reshape_14/Reshape/shape", "op": "Const", "attr": {"dtype": {"type": "DT_INT32"}, "value": {"tensor": {"dtype": "DT_INT32", "tensorShape": {"dim": [{"size": "3"}]}}}}}, {"name": "PartitionedCall/model_19/tf.concat_16/concat/axis", "op": "Const", "attr": {"dtype": {"type": "DT_INT32"}, "value": {"tensor": {"dtype": "DT_INT32", "tensorShape": {}}}}}, {"name": "PartitionedCall/model_19/output0/concat/axis", "op": "Const", "attr": {"value": {"tensor": {"dtype": "DT_INT32", "tensorShape": {}}}, "dtype": {"type": "DT_INT32"}}}, {"name": "PartitionedCall/model_19/tf.nn.conv2d_transpose/conv2d_transpose/input_sizes", "op": "Const", "attr": {"value": {"tensor": {"dtype": "DT_INT32", "tensorShape": {"dim": [{"size": "4"}]}}}, "dtype": {"type": "DT_INT32"}}}, {"name": "15400", "op": "Const", "attr": {"value": {"tensor": {"dtype": "DT_FLOAT", "tensorShape": {"dim": [{"size": "2"}, {"size": "2"}, {"size": "64"}, {"size": "64"}]}}}, "dtype": {"type": "DT_FLOAT"}}}, {"name": "15240", "op": "Const", "attr": {"dtype": {"type": "DT_INT64"}, "value": {"tensor": {"dtype": "DT_INT64", "tensorShape": {"dim": [{"size": "4"}]}}}}}, {"name": "15242", "op": "Const", "attr": {"value": {"tensor": {"dtype": "DT_INT64", "tensorShape": {"dim": [{"size": "4"}]}}}, "dtype": {"type": "DT_INT64"}}}, {"name": "PartitionedCall/model_19/tf.strided_slice_10/ones_like", "op": "Const", "attr": {"dtype": {"type": "DT_INT64"}, "value": {"tensor": {"dtype": "DT_INT64", "tensorShape": {"dim": [{"size": "4"}]}}}}}, {"name": "15216", "op": "Const", "attr": {"value": {"tensor": {"dtype": "DT_INT64", "tensorShape": {"dim": [{"size": "4"}]}}}, "dtype": {"type": "DT_INT64"}}}, {"name": "15218", "op": "Const", "attr": {"value": {"tensor": {"dtype": "DT_INT64", "tensorShape": {"dim": [{"size": "4"}]}}}, "dtype": {"type": "DT_INT64"}}}, {"name": "PartitionedCall/model_19/tf.strided_slice_8/ones_like", "op": "Const", "attr": {"dtype": {"type": "DT_INT64"}, "value": {"tensor": {"dtype": "DT_INT64", "tensorShape": {"dim": [{"size": "4"}]}}}}}, {"name": "15184", "op": "Const", "attr": {"dtype": {"type": "DT_INT64"}, "value": {"tensor": {"dtype": "DT_INT64", "tensorShape": {"dim": [{"size": "4"}]}}}}}, {"name": "15186", "op": "Const", "attr": {"value": {"tensor": {"dtype": "DT_INT64", "tensorShape": {"dim": [{"size": "4"}]}}}, "dtype": {"type": "DT_INT64"}}}, {"name": "PartitionedCall/model_19/tf.strided_slice_6/ones_like", "op": "Const", "attr": {"dtype": {"type": "DT_INT64"}, "value": {"tensor": {"dtype": "DT_INT64", "tensorShape": {"dim": [{"size": "4"}]}}}}}, {"name": "15162", "op": "Const", "attr": {"dtype": {"type": "DT_INT32"}, "value": {"tensor": {"dtype": "DT_INT32", "tensorShape": {"dim": [{"size": "4"}, {"size": "2"}]}}}}}, {"name": "15164", "op": "Const", "attr": {"dtype": {"type": "DT_FLOAT"}, "value": {"tensor": {"dtype": "DT_FLOAT", "tensorShape": {"dim": [{"size": "3"}, {"size": "3"}, {"size": "128"}, {"size": "256"}]}}}}}, {"name": "15166", "op": "Const", "attr": {"dtype": {"type": "DT_FLOAT"}, "value": {"tensor": {"dtype": "DT_FLOAT", "tensorShape": {"dim": [{"size": "256"}]}}}}}, {"name": "15168", "op": "Const", "attr": {"value": {"tensor": {"dtype": "DT_FLOAT", "tensorShape": {"dim": [{"size": "1"}, {"size": "1"}, {"size": "256"}, {"size": "256"}]}}}, "dtype": {"type": "DT_FLOAT"}}}, {"name": "15170", "op": "Const", "attr": {"value": {"tensor": {"dtype": "DT_FLOAT", "tensorShape": {"dim": [{"size": "256"}]}}}, "dtype": {"type": "DT_FLOAT"}}}, {"name": "15172", "op": "Const", "attr": {"value": {"tensor": {"dtype": "DT_INT64", "tensorShape": {"dim": [{"size": "4"}]}}}, "dtype": {"type": "DT_INT64"}}}, {"name": "15174", "op": "Const", "attr": {"dtype": {"type": "DT_INT64"}, "value": {"tensor": {"dtype": "DT_INT64", "tensorShape": {"dim": [{"size": "4"}]}}}}}, {"name": "PartitionedCall/model_19/tf.strided_slice_7/ones_like", "op": "Const", "attr": {"value": {"tensor": {"dtype": "DT_INT64", "tensorShape": {"dim": [{"size": "4"}]}}}, "dtype": {"type": "DT_INT64"}}}, {"name": "15176", "op": "Const", "attr": {"value": {"tensor": {"dtype": "DT_FLOAT", "tensorShape": {"dim": [{"size": "3"}, {"size": "3"}, {"size": "128"}, {"size": "128"}]}}}, "dtype": {"type": "DT_FLOAT"}}}, {"name": "15178", "op": "Const", "attr": {"dtype": {"type": "DT_FLOAT"}, "value": {"tensor": {"dtype": "DT_FLOAT", "tensorShape": {"dim": [{"size": "128"}]}}}}}, {"name": "15180", "op": "Const", "attr": {"dtype": {"type": "DT_FLOAT"}, "value": {"tensor": {"dtype": "DT_FLOAT", "tensorShape": {"dim": [{"size": "3"}, {"size": "3"}, {"size": "128"}, {"size": "128"}]}}}}}, {"name": "15182", "op": "Const", "attr": {"value": {"tensor": {"dtype": "DT_FLOAT", "tensorShape": {"dim": [{"size": "128"}]}}}, "dtype": {"type": "DT_FLOAT"}}}, {"name": "PartitionedCall/model_19/tf.concat_3/concat/axis", "op": "Const", "attr": {"value": {"tensor": {"dtype": "DT_INT32", "tensorShape": {}}}, "dtype": {"type": "DT_INT32"}}}, {"name": "15188", "op": "Const", "attr": {"dtype": {"type": "DT_FLOAT"}, "value": {"tensor": {"dtype": "DT_FLOAT", "tensorShape": {"dim": [{"size": "1"}, {"size": "1"}, {"size": "384"}, {"size": "256"}]}}}}}, {"name": "15190", "op": "Const", "attr": {"value": {"tensor": {"dtype": "DT_FLOAT", "tensorShape": {"dim": [{"size": "256"}]}}}, "dtype": {"type": "DT_FLOAT"}}}, {"name": "15192", "op": "Const", "attr": {"dtype": {"type": "DT_FLOAT"}, "value": {"tensor": {"dtype": "DT_FLOAT", "tensorShape": {"dim": [{"size": "1"}, {"size": "1"}, {"size": "256"}, {"size": "128"}]}}}}}, {"name": "15194", "op": "Const", "attr": {"value": {"tensor": {"dtype": "DT_FLOAT", "tensorShape": {"dim": [{"size": "128"}]}}}, "dtype": {"type": "DT_FLOAT"}}}, {"name": "PartitionedCall/model_19/tf.concat_4/concat/axis", "op": "Const", "attr": {"dtype": {"type": "DT_INT32"}, "value": {"tensor": {"dtype": "DT_INT32", "tensorShape": {}}}}}, {"name": "15196", "op": "Const", "attr": {"dtype": {"type": "DT_FLOAT"}, "value": {"tensor": {"dtype": "DT_FLOAT", "tensorShape": {"dim": [{"size": "1"}, {"size": "1"}, {"size": "512"}, {"size": "256"}]}}}}}, {"name": "15198", "op": "Const", "attr": {"value": {"tensor": {"dtype": "DT_FLOAT", "tensorShape": {"dim": [{"size": "256"}]}}}, "dtype": {"type": "DT_FLOAT"}}}, {"name": "PartitionedCall/model_19/tf.image.resize/resize/size", "op": "Const", "attr": {"dtype": {"type": "DT_INT32"}, "value": {"tensor": {"dtype": "DT_INT32", "tensorShape": {"dim": [{"size": "2"}]}}}}}, {"name": "15154", "op": "Const", "attr": {"value": {"tensor": {"dtype": "DT_INT64", "tensorShape": {"dim": [{"size": "4"}]}}}, "dtype": {"type": "DT_INT64"}}}, {"name": "15156", "op": "Const", "attr": {"dtype": {"type": "DT_INT64"}, "value": {"tensor": {"dtype": "DT_INT64", "tensorShape": {"dim": [{"size": "4"}]}}}}}, {"name": "PartitionedCall/model_19/tf.strided_slice_4/ones_like", "op": "Const", "attr": {"value": {"tensor": {"dtype": "DT_INT64", "tensorShape": {"dim": [{"size": "4"}]}}}, "dtype": {"type": "DT_INT64"}}}, {"name": "15124", "op": "Const", "attr": {"dtype": {"type": "DT_INT32"}, "value": {"tensor": {"dtype": "DT_INT32", "tensorShape": {"dim": [{"size": "4"}, {"size": "2"}]}}}}}, {"name": "15126", "op": "Const", "attr": {"dtype": {"type": "DT_FLOAT"}, "value": {"tensor": {"dtype": "DT_FLOAT", "tensorShape": {"dim": [{"size": "3"}, {"size": "3"}, {"size": "64"}, {"size": "128"}]}}}}}, {"name": "15128", "op": "Const", "attr": {"value": {"tensor": {"dtype": "DT_FLOAT", "tensorShape": {"dim": [{"size": "128"}]}}}, "dtype": {"type": "DT_FLOAT"}}}, {"name": "15130", "op": "Const", "attr": {"dtype": {"type": "DT_FLOAT"}, "value": {"tensor": {"dtype": "DT_FLOAT", "tensorShape": {"dim": [{"size": "1"}, {"size": "1"}, {"size": "128"}, {"size": "128"}]}}}}}, {"name": "15132", "op": "Const", "attr": {"dtype": {"type": "DT_FLOAT"}, "value": {"tensor": {"dtype": "DT_FLOAT", "tensorShape": {"dim": [{"size": "128"}]}}}}}, {"name": "15134", "op": "Const", "attr": {"value": {"tensor": {"dtype": "DT_INT64", "tensorShape": {"dim": [{"size": "4"}]}}}, "dtype": {"type": "DT_INT64"}}}, {"name": "15136", "op": "Const", "attr": {"dtype": {"type": "DT_INT64"}, "value": {"tensor": {"dtype": "DT_INT64", "tensorShape": {"dim": [{"size": "4"}]}}}}}, {"name": "PartitionedCall/model_19/tf.strided_slice_5/ones_like", "op": "Const", "attr": {"dtype": {"type": "DT_INT64"}, "value": {"tensor": {"dtype": "DT_INT64", "tensorShape": {"dim": [{"size": "4"}]}}}}}, {"name": "15138", "op": "Const", "attr": {"dtype": {"type": "DT_FLOAT"}, "value": {"tensor": {"dtype": "DT_FLOAT", "tensorShape": {"dim": [{"size": "3"}, {"size": "3"}, {"size": "64"}, {"size": "64"}]}}}}}, {"name": "15140", "op": "Const", "attr": {"value": {"tensor": {"dtype": "DT_FLOAT", "tensorShape": {"dim": [{"size": "64"}]}}}, "dtype": {"type": "DT_FLOAT"}}}, {"name": "15142", "op": "Const", "attr": {"value": {"tensor": {"dtype": "DT_FLOAT", "tensorShape": {"dim": [{"size": "3"}, {"size": "3"}, {"size": "64"}, {"size": "64"}]}}}, "dtype": {"type": "DT_FLOAT"}}}, {"name": "15144", "op": "Const", "attr": {"dtype": {"type": "DT_FLOAT"}, "value": {"tensor": {"dtype": "DT_FLOAT", "tensorShape": {"dim": [{"size": "64"}]}}}}}, {"name": "15146", "op": "Const", "attr": {"dtype": {"type": "DT_FLOAT"}, "value": {"tensor": {"dtype": "DT_FLOAT", "tensorShape": {"dim": [{"size": "3"}, {"size": "3"}, {"size": "64"}, {"size": "64"}]}}}}}, {"name": "15148", "op": "Const", "attr": {"dtype": {"type": "DT_FLOAT"}, "value": {"tensor": {"dtype": "DT_FLOAT", "tensorShape": {"dim": [{"size": "64"}]}}}}}, {"name": "15150", "op": "Const", "attr": {"value": {"tensor": {"dtype": "DT_FLOAT", "tensorShape": {"dim": [{"size": "3"}, {"size": "3"}, {"size": "64"}, {"size": "64"}]}}}, "dtype": {"type": "DT_FLOAT"}}}, {"name": "15152", "op": "Const", "attr": {"dtype": {"type": "DT_FLOAT"}, "value": {"tensor": {"dtype": "DT_FLOAT", "tensorShape": {"dim": [{"size": "64"}]}}}}}, {"name": "PartitionedCall/model_19/tf.concat_2/concat/axis", "op": "Const", "attr": {"dtype": {"type": "DT_INT32"}, "value": {"tensor": {"dtype": "DT_INT32", "tensorShape": {}}}}}, {"name": "15158", "op": "Const", "attr": {"dtype": {"type": "DT_FLOAT"}, "value": {"tensor": {"dtype": "DT_FLOAT", "tensorShape": {"dim": [{"size": "1"}, {"size": "1"}, {"size": "256"}, {"size": "128"}]}}}}}, {"name": "15160", "op": "Const", "attr": {"dtype": {"type": "DT_FLOAT"}, "value": {"tensor": {"dtype": "DT_FLOAT", "tensorShape": {"dim": [{"size": "128"}]}}}}}, {"name": "PartitionedCall/model_19/tf.concat_5/concat/axis", "op": "Const", "attr": {"dtype": {"type": "DT_INT32"}, "value": {"tensor": {"dtype": "DT_INT32", "tensorShape": {}}}}}, {"name": "15200", "op": "Const", "attr": {"dtype": {"type": "DT_FLOAT"}, "value": {"tensor": {"dtype": "DT_FLOAT", "tensorShape": {"dim": [{"size": "1"}, {"size": "1"}, {"size": "384"}, {"size": "128"}]}}}}}, {"name": "15202", "op": "Const", "attr": {"dtype": {"type": "DT_FLOAT"}, "value": {"tensor": {"dtype": "DT_FLOAT", "tensorShape": {"dim": [{"size": "128"}]}}}}}, {"name": "15204", "op": "Const", "attr": {"value": {"tensor": {"dtype": "DT_INT64", "tensorShape": {"dim": [{"size": "4"}]}}}, "dtype": {"type": "DT_INT64"}}}, {"name": "15206", "op": "Const", "attr": {"value": {"tensor": {"dtype": "DT_INT64", "tensorShape": {"dim": [{"size": "4"}]}}}, "dtype": {"type": "DT_INT64"}}}, {"name": "PartitionedCall/model_19/tf.strided_slice_9/ones_like", "op": "Const", "attr": {"dtype": {"type": "DT_INT64"}, "value": {"tensor": {"dtype": "DT_INT64", "tensorShape": {"dim": [{"size": "4"}]}}}}}, {"name": "15208", "op": "Const", "attr": {"dtype": {"type": "DT_FLOAT"}, "value": {"tensor": {"dtype": "DT_FLOAT", "tensorShape": {"dim": [{"size": "3"}, {"size": "3"}, {"size": "64"}, {"size": "64"}]}}}}}, {"name": "15210", "op": "Const", "attr": {"dtype": {"type": "DT_FLOAT"}, "value": {"tensor": {"dtype": "DT_FLOAT", "tensorShape": {"dim": [{"size": "64"}]}}}}}, {"name": "15212", "op": "Const", "attr": {"value": {"tensor": {"dtype": "DT_FLOAT", "tensorShape": {"dim": [{"size": "3"}, {"size": "3"}, {"size": "64"}, {"size": "64"}]}}}, "dtype": {"type": "DT_FLOAT"}}}, {"name": "15214", "op": "Const", "attr": {"dtype": {"type": "DT_FLOAT"}, "value": {"tensor": {"dtype": "DT_FLOAT", "tensorShape": {"dim": [{"size": "64"}]}}}}}, {"name": "PartitionedCall/model_19/tf.concat_6/concat/axis", "op": "Const", "attr": {"dtype": {"type": "DT_INT32"}, "value": {"tensor": {"dtype": "DT_INT32", "tensorShape": {}}}}}, {"name": "15220", "op": "Const", "attr": {"value": {"tensor": {"dtype": "DT_FLOAT", "tensorShape": {"dim": [{"size": "1"}, {"size": "1"}, {"size": "192"}, {"size": "128"}]}}}, "dtype": {"type": "DT_FLOAT"}}}, {"name": "15222", "op": "Const", "attr": {"dtype": {"type": "DT_FLOAT"}, "value": {"tensor": {"dtype": "DT_FLOAT", "tensorShape": {"dim": [{"size": "128"}]}}}}}, {"name": "PartitionedCall/model_19/tf.image.resize_1/resize/size", "op": "Const", "attr": {"value": {"tensor": {"dtype": "DT_INT32", "tensorShape": {"dim": [{"size": "2"}]}}}, "dtype": {"type": "DT_INT32"}}}, {"name": "15116", "op": "Const", "attr": {"value": {"tensor": {"dtype": "DT_INT64", "tensorShape": {"dim": [{"size": "4"}]}}}, "dtype": {"type": "DT_INT64"}}}, {"name": "15118", "op": "Const", "attr": {"value": {"tensor": {"dtype": "DT_INT64", "tensorShape": {"dim": [{"size": "4"}]}}}, "dtype": {"type": "DT_INT64"}}}, {"name": "PartitionedCall/model_19/tf.strided_slice_2/ones_like", "op": "Const", "attr": {"value": {"tensor": {"dtype": "DT_INT64", "tensorShape": {"dim": [{"size": "4"}]}}}, "dtype": {"type": "DT_INT64"}}}, {"name": "15078", "op": "Const", "attr": {"dtype": {"type": "DT_INT64"}, "value": {"tensor": {"dtype": "DT_INT64", "tensorShape": {"dim": [{"size": "4"}]}}}}}, {"name": "15080", "op": "Const", "attr": {"value": {"tensor": {"dtype": "DT_INT64", "tensorShape": {"dim": [{"size": "4"}]}}}, "dtype": {"type": "DT_INT64"}}}, {"name": "PartitionedCall/model_19/tf.strided_slice/ones_like", "op": "Const", "attr": {"dtype": {"type": "DT_INT64"}, "value": {"tensor": {"dtype": "DT_INT64", "tensorShape": {"dim": [{"size": "4"}]}}}}}, {"name": "15050", "op": "Const", "attr": {"dtype": {"type": "DT_INT32"}, "value": {"tensor": {"dtype": "DT_INT32", "tensorShape": {"dim": [{"size": "4"}, {"size": "2"}]}}}}}, {"name": "15052", "op": "Const", "attr": {"dtype": {"type": "DT_FLOAT"}, "value": {"tensor": {"dtype": "DT_FLOAT", "tensorShape": {"dim": [{"size": "3"}, {"size": "3"}, {"size": "3"}, {"size": "16"}]}}}}}, {"name": "15054", "op": "Const", "attr": {"value": {"tensor": {"dtype": "DT_FLOAT", "tensorShape": {"dim": [{"size": "16"}]}}}, "dtype": {"type": "DT_FLOAT"}}}, {"name": "15056", "op": "Const", "attr": {"dtype": {"type": "DT_INT32"}, "value": {"tensor": {"dtype": "DT_INT32", "tensorShape": {"dim": [{"size": "4"}, {"size": "2"}]}}}}}, {"name": "15058", "op": "Const", "attr": {"dtype": {"type": "DT_FLOAT"}, "value": {"tensor": {"dtype": "DT_FLOAT", "tensorShape": {"dim": [{"size": "3"}, {"size": "3"}, {"size": "16"}, {"size": "32"}]}}}}}, {"name": "15060", "op": "Const", "attr": {"value": {"tensor": {"dtype": "DT_FLOAT", "tensorShape": {"dim": [{"size": "32"}]}}}, "dtype": {"type": "DT_FLOAT"}}}, {"name": "15062", "op": "Const", "attr": {"dtype": {"type": "DT_FLOAT"}, "value": {"tensor": {"dtype": "DT_FLOAT", "tensorShape": {"dim": [{"size": "1"}, {"size": "1"}, {"size": "32"}, {"size": "32"}]}}}}}, {"name": "15064", "op": "Const", "attr": {"value": {"tensor": {"dtype": "DT_FLOAT", "tensorShape": {"dim": [{"size": "32"}]}}}, "dtype": {"type": "DT_FLOAT"}}}, {"name": "15066", "op": "Const", "attr": {"value": {"tensor": {"dtype": "DT_INT64", "tensorShape": {"dim": [{"size": "4"}]}}}, "dtype": {"type": "DT_INT64"}}}, {"name": "15068", "op": "Const", "attr": {"value": {"tensor": {"dtype": "DT_INT64", "tensorShape": {"dim": [{"size": "4"}]}}}, "dtype": {"type": "DT_INT64"}}}, {"name": "PartitionedCall/model_19/tf.strided_slice_1/ones_like", "op": "Const", "attr": {"value": {"tensor": {"dtype": "DT_INT64", "tensorShape": {"dim": [{"size": "4"}]}}}, "dtype": {"type": "DT_INT64"}}}, {"name": "15070", "op": "Const", "attr": {"value": {"tensor": {"dtype": "DT_FLOAT", "tensorShape": {"dim": [{"size": "3"}, {"size": "3"}, {"size": "16"}, {"size": "16"}]}}}, "dtype": {"type": "DT_FLOAT"}}}, {"name": "15072", "op": "Const", "attr": {"value": {"tensor": {"dtype": "DT_FLOAT", "tensorShape": {"dim": [{"size": "16"}]}}}, "dtype": {"type": "DT_FLOAT"}}}, {"name": "15074", "op": "Const", "attr": {"value": {"tensor": {"dtype": "DT_FLOAT", "tensorShape": {"dim": [{"size": "3"}, {"size": "3"}, {"size": "16"}, {"size": "16"}]}}}, "dtype": {"type": "DT_FLOAT"}}}, {"name": "15076", "op": "Const", "attr": {"value": {"tensor": {"dtype": "DT_FLOAT", "tensorShape": {"dim": [{"size": "16"}]}}}, "dtype": {"type": "DT_FLOAT"}}}, {"name": "PartitionedCall/model_19/tf.concat/concat/axis", "op": "Const", "attr": {"dtype": {"type": "DT_INT32"}, "value": {"tensor": {"dtype": "DT_INT32", "tensorShape": {}}}}}, {"name": "15082", "op": "Const", "attr": {"value": {"tensor": {"dtype": "DT_FLOAT", "tensorShape": {"dim": [{"size": "1"}, {"size": "1"}, {"size": "48"}, {"size": "32"}]}}}, "dtype": {"type": "DT_FLOAT"}}}, {"name": "15084", "op": "Const", "attr": {"dtype": {"type": "DT_FLOAT"}, "value": {"tensor": {"dtype": "DT_FLOAT", "tensorShape": {"dim": [{"size": "32"}]}}}}}, {"name": "15086", "op": "Const", "attr": {"value": {"tensor": {"dtype": "DT_INT32", "tensorShape": {"dim": [{"size": "4"}, {"size": "2"}]}}}, "dtype": {"type": "DT_INT32"}}}, {"name": "15088", "op": "Const", "attr": {"value": {"tensor": {"dtype": "DT_FLOAT", "tensorShape": {"dim": [{"size": "3"}, {"size": "3"}, {"size": "32"}, {"size": "64"}]}}}, "dtype": {"type": "DT_FLOAT"}}}, {"name": "15090", "op": "Const", "attr": {"dtype": {"type": "DT_FLOAT"}, "value": {"tensor": {"dtype": "DT_FLOAT", "tensorShape": {"dim": [{"size": "64"}]}}}}}, {"name": "15092", "op": "Const", "attr": {"dtype": {"type": "DT_FLOAT"}, "value": {"tensor": {"dtype": "DT_FLOAT", "tensorShape": {"dim": [{"size": "1"}, {"size": "1"}, {"size": "64"}, {"size": "64"}]}}}}}, {"name": "15094", "op": "Const", "attr": {"value": {"tensor": {"dtype": "DT_FLOAT", "tensorShape": {"dim": [{"size": "64"}]}}}, "dtype": {"type": "DT_FLOAT"}}}, {"name": "15096", "op": "Const", "attr": {"value": {"tensor": {"dtype": "DT_INT64", "tensorShape": {"dim": [{"size": "4"}]}}}, "dtype": {"type": "DT_INT64"}}}, {"name": "15098", "op": "Const", "attr": {"dtype": {"type": "DT_INT64"}, "value": {"tensor": {"dtype": "DT_INT64", "tensorShape": {"dim": [{"size": "4"}]}}}}}, {"name": "PartitionedCall/model_19/tf.strided_slice_3/ones_like", "op": "Const", "attr": {"dtype": {"type": "DT_INT64"}, "value": {"tensor": {"dtype": "DT_INT64", "tensorShape": {"dim": [{"size": "4"}]}}}}}, {"name": "15100", "op": "Const", "attr": {"value": {"tensor": {"dtype": "DT_FLOAT", "tensorShape": {"dim": [{"size": "3"}, {"size": "3"}, {"size": "32"}, {"size": "32"}]}}}, "dtype": {"type": "DT_FLOAT"}}}, {"name": "15102", "op": "Const", "attr": {"dtype": {"type": "DT_FLOAT"}, "value": {"tensor": {"dtype": "DT_FLOAT", "tensorShape": {"dim": [{"size": "32"}]}}}}}, {"name": "15104", "op": "Const", "attr": {"value": {"tensor": {"dtype": "DT_FLOAT", "tensorShape": {"dim": [{"size": "3"}, {"size": "3"}, {"size": "32"}, {"size": "32"}]}}}, "dtype": {"type": "DT_FLOAT"}}}, {"name": "15106", "op": "Const", "attr": {"dtype": {"type": "DT_FLOAT"}, "value": {"tensor": {"dtype": "DT_FLOAT", "tensorShape": {"dim": [{"size": "32"}]}}}}}, {"name": "15108", "op": "Const", "attr": {"dtype": {"type": "DT_FLOAT"}, "value": {"tensor": {"dtype": "DT_FLOAT", "tensorShape": {"dim": [{"size": "3"}, {"size": "3"}, {"size": "32"}, {"size": "32"}]}}}}}, {"name": "15110", "op": "Const", "attr": {"value": {"tensor": {"dtype": "DT_FLOAT", "tensorShape": {"dim": [{"size": "32"}]}}}, "dtype": {"type": "DT_FLOAT"}}}, {"name": "15112", "op": "Const", "attr": {"value": {"tensor": {"dtype": "DT_FLOAT", "tensorShape": {"dim": [{"size": "3"}, {"size": "3"}, {"size": "32"}, {"size": "32"}]}}}, "dtype": {"type": "DT_FLOAT"}}}, {"name": "15114", "op": "Const", "attr": {"value": {"tensor": {"dtype": "DT_FLOAT", "tensorShape": {"dim": [{"size": "32"}]}}}, "dtype": {"type": "DT_FLOAT"}}}, {"name": "PartitionedCall/model_19/tf.concat_1/concat/axis", "op": "Const", "attr": {"dtype": {"type": "DT_INT32"}, "value": {"tensor": {"dtype": "DT_INT32", "tensorShape": {}}}}}, {"name": "15120", "op": "Const", "attr": {"dtype": {"type": "DT_FLOAT"}, "value": {"tensor": {"dtype": "DT_FLOAT", "tensorShape": {"dim": [{"size": "1"}, {"size": "1"}, {"size": "128"}, {"size": "64"}]}}}}}, {"name": "15122", "op": "Const", "attr": {"value": {"tensor": {"dtype": "DT_FLOAT", "tensorShape": {"dim": [{"size": "64"}]}}}, "dtype": {"type": "DT_FLOAT"}}}, {"name": "PartitionedCall/model_19/tf.concat_7/concat/axis", "op": "Const", "attr": {"value": {"tensor": {"dtype": "DT_INT32", "tensorShape": {}}}, "dtype": {"type": "DT_INT32"}}}, {"name": "15224", "op": "Const", "attr": {"value": {"tensor": {"dtype": "DT_FLOAT", "tensorShape": {"dim": [{"size": "1"}, {"size": "1"}, {"size": "192"}, {"size": "64"}]}}}, "dtype": {"type": "DT_FLOAT"}}}, {"name": "15226", "op": "Const", "attr": {"value": {"tensor": {"dtype": "DT_FLOAT", "tensorShape": {"dim": [{"size": "64"}]}}}, "dtype": {"type": "DT_FLOAT"}}}, {"name": "15228", "op": "Const", "attr": {"value": {"tensor": {"dtype": "DT_INT64", "tensorShape": {"dim": [{"size": "4"}]}}}, "dtype": {"type": "DT_INT64"}}}, {"name": "15230", "op": "Const", "attr": {"value": {"tensor": {"dtype": "DT_INT64", "tensorShape": {"dim": [{"size": "4"}]}}}, "dtype": {"type": "DT_INT64"}}}, {"name": "PartitionedCall/model_19/tf.strided_slice_11/ones_like", "op": "Const", "attr": {"value": {"tensor": {"dtype": "DT_INT64", "tensorShape": {"dim": [{"size": "4"}]}}}, "dtype": {"type": "DT_INT64"}}}, {"name": "15232", "op": "Const", "attr": {"value": {"tensor": {"dtype": "DT_FLOAT", "tensorShape": {"dim": [{"size": "3"}, {"size": "3"}, {"size": "32"}, {"size": "32"}]}}}, "dtype": {"type": "DT_FLOAT"}}}, {"name": "15234", "op": "Const", "attr": {"dtype": {"type": "DT_FLOAT"}, "value": {"tensor": {"dtype": "DT_FLOAT", "tensorShape": {"dim": [{"size": "32"}]}}}}}, {"name": "15236", "op": "Const", "attr": {"value": {"tensor": {"dtype": "DT_FLOAT", "tensorShape": {"dim": [{"size": "3"}, {"size": "3"}, {"size": "32"}, {"size": "32"}]}}}, "dtype": {"type": "DT_FLOAT"}}}, {"name": "15238", "op": "Const", "attr": {"dtype": {"type": "DT_FLOAT"}, "value": {"tensor": {"dtype": "DT_FLOAT", "tensorShape": {"dim": [{"size": "32"}]}}}}}, {"name": "PartitionedCall/model_19/tf.concat_8/concat/axis", "op": "Const", "attr": {"dtype": {"type": "DT_INT32"}, "value": {"tensor": {"dtype": "DT_INT32", "tensorShape": {}}}}}, {"name": "15244", "op": "Const", "attr": {"value": {"tensor": {"dtype": "DT_FLOAT", "tensorShape": {"dim": [{"size": "1"}, {"size": "1"}, {"size": "96"}, {"size": "64"}]}}}, "dtype": {"type": "DT_FLOAT"}}}, {"name": "15246", "op": "Const", "attr": {"dtype": {"type": "DT_FLOAT"}, "value": {"tensor": {"dtype": "DT_FLOAT", "tensorShape": {"dim": [{"size": "64"}]}}}}}, {"name": "15384", "op": "Const", "attr": {"dtype": {"type": "DT_FLOAT"}, "value": {"tensor": {"dtype": "DT_FLOAT", "tensorShape": {"dim": [{"size": "3"}, {"size": "3"}, {"size": "64"}, {"size": "64"}]}}}}}, {"name": "15392", "op": "Const", "attr": {"dtype": {"type": "DT_FLOAT"}, "value": {"tensor": {"dtype": "DT_FLOAT", "tensorShape": {"dim": [{"size": "64"}]}}}}}, {"name": "PartitionedCall/model_19/tf.math.add_52/Add/y", "op": "Const", "attr": {"value": {"tensor": {"dtype": "DT_FLOAT", "tensorShape": {"dim": [{"size": "64"}]}}}, "dtype": {"type": "DT_FLOAT"}}}, {"name": "15416", "op": "Const", "attr": {"value": {"tensor": {"dtype": "DT_FLOAT", "tensorShape": {"dim": [{"size": "3"}, {"size": "3"}, {"size": "64"}, {"size": "64"}]}}}, "dtype": {"type": "DT_FLOAT"}}}, {"name": "15418", "op": "Const", "attr": {"value": {"tensor": {"dtype": "DT_FLOAT", "tensorShape": {"dim": [{"size": "64"}]}}}, "dtype": {"type": "DT_FLOAT"}}}, {"name": "15444", "op": "Const", "attr": {"dtype": {"type": "DT_FLOAT"}, "value": {"tensor": {"dtype": "DT_FLOAT", "tensorShape": {"dim": [{"size": "1"}, {"size": "1"}, {"size": "64"}, {"size": "32"}]}}}}}, {"name": "15448", "op": "Const", "attr": {"value": {"tensor": {"dtype": "DT_FLOAT", "tensorShape": {"dim": [{"size": "32"}]}}}, "dtype": {"type": "DT_FLOAT"}}}, {"name": "x", "op": "Placeholder", "attr": {"dtype": {"type": "DT_FLOAT"}, "shape": {"shape": {"dim": [{"size": "1"}, {"size": "640"}, {"size": "640"}, {"size": "3"}]}}}}, {"name": "PartitionedCall/model_19/tf.compat.v1.pad/Pad", "op": "Pad", "input": ["x", "15050"], "attr": {"T": {"type": "DT_FLOAT"}, "Tpaddings": {"type": "DT_INT32"}}}, {"name": "PartitionedCall/model_19/tf.math.add/Add", "op": "_FusedConv2D", "input": ["PartitionedCall/model_19/tf.compat.v1.pad/Pad", "15052", "15054"], "device": "/device:CPU:0", "attr": {"epsilon": {"f": 0.0}, "T": {"type": "DT_FLOAT"}, "num_args": {"i": "1"}, "strides": {"list": {"i": ["1", "2", "2", "1"]}}, "TArgs": {"list": {"type": ["DT_FLOAT"]}}, "num_host_args": {"i": "0"}, "fused_ops": {"list": {"s": ["Qmlhc0FkZA=="]}}, "data_format": {"s": "TkhXQw=="}, "explicit_paddings": {"list": {}}, "filter_format": {"s": "SFdJTw=="}, "padding": {"s": "VkFMSUQ="}, "use_cudnn_on_gpu": {"b": true}, "leakyrelu_alpha": {"f": 0.2}, "dilations": {"list": {"i": ["1", "1", "1", "1"]}}}}, {"name": "PartitionedCall/model_19/tf.math.sigmoid/Sigmoid", "op": "Sigmoid", "input": ["PartitionedCall/model_19/tf.math.add/Add"], "attr": {"T": {"type": "DT_FLOAT"}}}, {"name": "PartitionedCall/model_19/tf.math.multiply_3/Mul", "op": "Mul", "input": ["PartitionedCall/model_19/tf.math.add/Add", "PartitionedCall/model_19/tf.math.sigmoid/Sigmoid"], "attr": {"T": {"type": "DT_FLOAT"}}}, {"name": "PartitionedCall/model_19/tf.compat.v1.pad_1/Pad", "op": "Pad", "input": ["PartitionedCall/model_19/tf.math.multiply_3/Mul", "15056"], "attr": {"T": {"type": "DT_FLOAT"}, "Tpaddings": {"type": "DT_INT32"}}}, {"name": "PartitionedCall/model_19/tf.math.add_1/Add", "op": "_FusedConv2D", "input": ["PartitionedCall/model_19/tf.compat.v1.pad_1/Pad", "15058", "15060"], "device": "/device:CPU:0", "attr": {"TArgs": {"list": {"type": ["DT_FLOAT"]}}, "fused_ops": {"list": {"s": ["Qmlhc0FkZA=="]}}, "use_cudnn_on_gpu": {"b": true}, "filter_format": {"s": "SFdJTw=="}, "strides": {"list": {"i": ["1", "2", "2", "1"]}}, "T": {"type": "DT_FLOAT"}, "data_format": {"s": "TkhXQw=="}, "epsilon": {"f": 0.0}, "leakyrelu_alpha": {"f": 0.2}, "num_args": {"i": "1"}, "explicit_paddings": {"list": {}}, "dilations": {"list": {"i": ["1", "1", "1", "1"]}}, "num_host_args": {"i": "0"}, "padding": {"s": "VkFMSUQ="}}}, {"name": "PartitionedCall/model_19/tf.math.sigmoid_1/Sigmoid", "op": "Sigmoid", "input": ["PartitionedCall/model_19/tf.math.add_1/Add"], "attr": {"T": {"type": "DT_FLOAT"}}}, {"name": "PartitionedCall/model_19/tf.math.multiply_7/Mul", "op": "Mul", "input": ["PartitionedCall/model_19/tf.math.add_1/Add", "PartitionedCall/model_19/tf.math.sigmoid_1/Sigmoid"], "attr": {"T": {"type": "DT_FLOAT"}}}, {"name": "PartitionedCall/model_19/tf.math.add_2/Add", "op": "_FusedConv2D", "input": ["PartitionedCall/model_19/tf.math.multiply_7/Mul", "15062", "15064"], "device": "/device:CPU:0", "attr": {"strides": {"list": {"i": ["1", "1", "1", "1"]}}, "T": {"type": "DT_FLOAT"}, "epsilon": {"f": 0.0}, "dilations": {"list": {"i": ["1", "1", "1", "1"]}}, "use_cudnn_on_gpu": {"b": true}, "TArgs": {"list": {"type": ["DT_FLOAT"]}}, "explicit_paddings": {"list": {}}, "num_args": {"i": "1"}, "leakyrelu_alpha": {"f": 0.2}, "data_format": {"s": "TkhXQw=="}, "fused_ops": {"list": {"s": ["Qmlhc0FkZA=="]}}, "padding": {"s": "U0FNRQ=="}, "filter_format": {"s": "SFdJTw=="}, "num_host_args": {"i": "0"}}}, {"name": "PartitionedCall/model_19/tf.math.sigmoid_2/Sigmoid", "op": "Sigmoid", "input": ["PartitionedCall/model_19/tf.math.add_2/Add"], "attr": {"T": {"type": "DT_FLOAT"}}}, {"name": "PartitionedCall/model_19/tf.math.multiply_11/Mul", "op": "Mul", "input": ["PartitionedCall/model_19/tf.math.add_2/Add", "PartitionedCall/model_19/tf.math.sigmoid_2/Sigmoid"], "attr": {"T": {"type": "DT_FLOAT"}}}, {"name": "PartitionedCall/model_19/tf.strided_slice/StridedSlice", "op": "StridedSlice", "input": ["PartitionedCall/model_19/tf.math.multiply_11/Mul", "15078", "15080", "PartitionedCall/model_19/tf.strided_slice/ones_like"], "attr": {"begin_mask": {"i": "15"}, "end_mask": {"i": "7"}, "T": {"type": "DT_FLOAT"}, "Index": {"type": "DT_INT64"}, "ellipsis_mask": {"i": "0"}, "new_axis_mask": {"i": "0"}, "shrink_axis_mask": {"i": "0"}}}, {"name": "PartitionedCall/model_19/tf.strided_slice_1/StridedSlice", "op": "StridedSlice", "input": ["PartitionedCall/model_19/tf.math.multiply_11/Mul", "15066", "15068", "PartitionedCall/model_19/tf.strided_slice_1/ones_like"], "attr": {"Index": {"type": "DT_INT64"}, "begin_mask": {"i": "7"}, "new_axis_mask": {"i": "0"}, "end_mask": {"i": "7"}, "shrink_axis_mask": {"i": "0"}, "T": {"type": "DT_FLOAT"}, "ellipsis_mask": {"i": "0"}}}, {"name": "PartitionedCall/model_19/tf.math.add_3/Add", "op": "_FusedConv2D", "input": ["PartitionedCall/model_19/tf.strided_slice_1/StridedSlice", "15070", "15072"], "device": "/device:CPU:0", "attr": {"use_cudnn_on_gpu": {"b": true}, "padding": {"s": "U0FNRQ=="}, "num_host_args": {"i": "0"}, "strides": {"list": {"i": ["1", "1", "1", "1"]}}, "filter_format": {"s": "SFdJTw=="}, "leakyrelu_alpha": {"f": 0.2}, "epsilon": {"f": 0.0}, "explicit_paddings": {"list": {}}, "num_args": {"i": "1"}, "T": {"type": "DT_FLOAT"}, "dilations": {"list": {"i": ["1", "1", "1", "1"]}}, "data_format": {"s": "TkhXQw=="}, "fused_ops": {"list": {"s": ["Qmlhc0FkZA=="]}}, "TArgs": {"list": {"type": ["DT_FLOAT"]}}}}, {"name": "PartitionedCall/model_19/tf.math.sigmoid_3/Sigmoid", "op": "Sigmoid", "input": ["PartitionedCall/model_19/tf.math.add_3/Add"], "attr": {"T": {"type": "DT_FLOAT"}}}, {"name": "PartitionedCall/model_19/tf.math.multiply_15/Mul", "op": "Mul", "input": ["PartitionedCall/model_19/tf.math.add_3/Add", "PartitionedCall/model_19/tf.math.sigmoid_3/Sigmoid"], "attr": {"T": {"type": "DT_FLOAT"}}}, {"name": "PartitionedCall/model_19/tf.math.add_4/Add", "op": "_FusedConv2D", "input": ["PartitionedCall/model_19/tf.math.multiply_15/Mul", "15074", "15076"], "device": "/device:CPU:0", "attr": {"num_host_args": {"i": "0"}, "padding": {"s": "U0FNRQ=="}, "T": {"type": "DT_FLOAT"}, "data_format": {"s": "TkhXQw=="}, "leakyrelu_alpha": {"f": 0.2}, "strides": {"list": {"i": ["1", "1", "1", "1"]}}, "num_args": {"i": "1"}, "explicit_paddings": {"list": {}}, "use_cudnn_on_gpu": {"b": true}, "dilations": {"list": {"i": ["1", "1", "1", "1"]}}, "filter_format": {"s": "SFdJTw=="}, "epsilon": {"f": 0.0}, "fused_ops": {"list": {"s": ["Qmlhc0FkZA=="]}}, "TArgs": {"list": {"type": ["DT_FLOAT"]}}}}, {"name": "PartitionedCall/model_19/tf.math.sigmoid_4/Sigmoid", "op": "Sigmoid", "input": ["PartitionedCall/model_19/tf.math.add_4/Add"], "attr": {"T": {"type": "DT_FLOAT"}}}, {"name": "PartitionedCall/model_19/tf.math.multiply_19/Mul", "op": "Mul", "input": ["PartitionedCall/model_19/tf.math.add_4/Add", "PartitionedCall/model_19/tf.math.sigmoid_4/Sigmoid"], "attr": {"T": {"type": "DT_FLOAT"}}}, {"name": "PartitionedCall/model_19/tf.math.add_6/Add", "op": "AddV2", "input": ["PartitionedCall/model_19/tf.strided_slice_1/StridedSlice", "PartitionedCall/model_19/tf.math.multiply_19/Mul"], "attr": {"T": {"type": "DT_FLOAT"}}}, {"name": "PartitionedCall/model_19/tf.concat/concat", "op": "ConcatV2", "input": ["PartitionedCall/model_19/tf.strided_slice/StridedSlice", "PartitionedCall/model_19/tf.strided_slice_1/StridedSlice", "PartitionedCall/model_19/tf.math.add_6/Add", "PartitionedCall/model_19/tf.concat/concat/axis"], "attr": {"N": {"i": "3"}, "T": {"type": "DT_FLOAT"}, "Tidx": {"type": "DT_INT32"}}}, {"name": "PartitionedCall/model_19/tf.math.add_7/Add", "op": "_FusedConv2D", "input": ["PartitionedCall/model_19/tf.concat/concat", "15082", "15084"], "device": "/device:CPU:0", "attr": {"fused_ops": {"list": {"s": ["Qmlhc0FkZA=="]}}, "explicit_paddings": {"list": {}}, "leakyrelu_alpha": {"f": 0.2}, "padding": {"s": "U0FNRQ=="}, "num_args": {"i": "1"}, "strides": {"list": {"i": ["1", "1", "1", "1"]}}, "filter_format": {"s": "SFdJTw=="}, "TArgs": {"list": {"type": ["DT_FLOAT"]}}, "data_format": {"s": "TkhXQw=="}, "T": {"type": "DT_FLOAT"}, "use_cudnn_on_gpu": {"b": true}, "dilations": {"list": {"i": ["1", "1", "1", "1"]}}, "num_host_args": {"i": "0"}, "epsilon": {"f": 0.0}}}, {"name": "PartitionedCall/model_19/tf.math.sigmoid_5/Sigmoid", "op": "Sigmoid", "input": ["PartitionedCall/model_19/tf.math.add_7/Add"], "attr": {"T": {"type": "DT_FLOAT"}}}, {"name": "PartitionedCall/model_19/tf.math.multiply_25/Mul", "op": "Mul", "input": ["PartitionedCall/model_19/tf.math.add_7/Add", "PartitionedCall/model_19/tf.math.sigmoid_5/Sigmoid"], "attr": {"T": {"type": "DT_FLOAT"}}}, {"name": "PartitionedCall/model_19/tf.compat.v1.pad_2/Pad", "op": "Pad", "input": ["PartitionedCall/model_19/tf.math.multiply_25/Mul", "15086"], "attr": {"Tpaddings": {"type": "DT_INT32"}, "T": {"type": "DT_FLOAT"}}}, {"name": "PartitionedCall/model_19/tf.math.add_8/Add", "op": "_FusedConv2D", "input": ["PartitionedCall/model_19/tf.compat.v1.pad_2/Pad", "15088", "15090"], "device": "/device:CPU:0", "attr": {"fused_ops": {"list": {"s": ["Qmlhc0FkZA=="]}}, "epsilon": {"f": 0.0}, "padding": {"s": "VkFMSUQ="}, "num_host_args": {"i": "0"}, "data_format": {"s": "TkhXQw=="}, "strides": {"list": {"i": ["1", "2", "2", "1"]}}, "explicit_paddings": {"list": {}}, "T": {"type": "DT_FLOAT"}, "leakyrelu_alpha": {"f": 0.2}, "filter_format": {"s": "SFdJTw=="}, "num_args": {"i": "1"}, "dilations": {"list": {"i": ["1", "1", "1", "1"]}}, "use_cudnn_on_gpu": {"b": true}, "TArgs": {"list": {"type": ["DT_FLOAT"]}}}}, {"name": "PartitionedCall/model_19/tf.math.sigmoid_6/Sigmoid", "op": "Sigmoid", "input": ["PartitionedCall/model_19/tf.math.add_8/Add"], "attr": {"T": {"type": "DT_FLOAT"}}}, {"name": "PartitionedCall/model_19/tf.math.multiply_29/Mul", "op": "Mul", "input": ["PartitionedCall/model_19/tf.math.add_8/Add", "PartitionedCall/model_19/tf.math.sigmoid_6/Sigmoid"], "attr": {"T": {"type": "DT_FLOAT"}}}, {"name": "PartitionedCall/model_19/tf.math.add_9/Add", "op": "_FusedConv2D", "input": ["PartitionedCall/model_19/tf.math.multiply_29/Mul", "15092", "15094"], "device": "/device:CPU:0", "attr": {"fused_ops": {"list": {"s": ["Qmlhc0FkZA=="]}}, "epsilon": {"f": 0.0}, "filter_format": {"s": "SFdJTw=="}, "num_host_args": {"i": "0"}, "padding": {"s": "U0FNRQ=="}, "strides": {"list": {"i": ["1", "1", "1", "1"]}}, "explicit_paddings": {"list": {}}, "leakyrelu_alpha": {"f": 0.2}, "dilations": {"list": {"i": ["1", "1", "1", "1"]}}, "T": {"type": "DT_FLOAT"}, "use_cudnn_on_gpu": {"b": true}, "TArgs": {"list": {"type": ["DT_FLOAT"]}}, "data_format": {"s": "TkhXQw=="}, "num_args": {"i": "1"}}}, {"name": "PartitionedCall/model_19/tf.math.sigmoid_7/Sigmoid", "op": "Sigmoid", "input": ["PartitionedCall/model_19/tf.math.add_9/Add"], "attr": {"T": {"type": "DT_FLOAT"}}}, {"name": "PartitionedCall/model_19/tf.math.multiply_33/Mul", "op": "Mul", "input": ["PartitionedCall/model_19/tf.math.add_9/Add", "PartitionedCall/model_19/tf.math.sigmoid_7/Sigmoid"], "attr": {"T": {"type": "DT_FLOAT"}}}, {"name": "PartitionedCall/model_19/tf.strided_slice_2/StridedSlice", "op": "StridedSlice", "input": ["PartitionedCall/model_19/tf.math.multiply_33/Mul", "15116", "15118", "PartitionedCall/model_19/tf.strided_slice_2/ones_like"], "attr": {"new_axis_mask": {"i": "0"}, "ellipsis_mask": {"i": "0"}, "T": {"type": "DT_FLOAT"}, "Index": {"type": "DT_INT64"}, "begin_mask": {"i": "15"}, "shrink_axis_mask": {"i": "0"}, "end_mask": {"i": "7"}}}, {"name": "PartitionedCall/model_19/tf.strided_slice_3/StridedSlice", "op": "StridedSlice", "input": ["PartitionedCall/model_19/tf.math.multiply_33/Mul", "15096", "15098", "PartitionedCall/model_19/tf.strided_slice_3/ones_like"], "attr": {"new_axis_mask": {"i": "0"}, "end_mask": {"i": "7"}, "Index": {"type": "DT_INT64"}, "shrink_axis_mask": {"i": "0"}, "T": {"type": "DT_FLOAT"}, "ellipsis_mask": {"i": "0"}, "begin_mask": {"i": "7"}}}, {"name": "PartitionedCall/model_19/tf.math.add_10/Add", "op": "_FusedConv2D", "input": ["PartitionedCall/model_19/tf.strided_slice_3/StridedSlice", "15100", "15102"], "device": "/device:CPU:0", "attr": {"leakyrelu_alpha": {"f": 0.2}, "filter_format": {"s": "SFdJTw=="}, "TArgs": {"list": {"type": ["DT_FLOAT"]}}, "T": {"type": "DT_FLOAT"}, "explicit_paddings": {"list": {}}, "dilations": {"list": {"i": ["1", "1", "1", "1"]}}, "num_host_args": {"i": "0"}, "strides": {"list": {"i": ["1", "1", "1", "1"]}}, "fused_ops": {"list": {"s": ["Qmlhc0FkZA=="]}}, "data_format": {"s": "TkhXQw=="}, "epsilon": {"f": 0.0}, "use_cudnn_on_gpu": {"b": true}, "num_args": {"i": "1"}, "padding": {"s": "U0FNRQ=="}}}, {"name": "PartitionedCall/model_19/tf.math.sigmoid_8/Sigmoid", "op": "Sigmoid", "input": ["PartitionedCall/model_19/tf.math.add_10/Add"], "attr": {"T": {"type": "DT_FLOAT"}}}, {"name": "PartitionedCall/model_19/tf.math.multiply_37/Mul", "op": "Mul", "input": ["PartitionedCall/model_19/tf.math.add_10/Add", "PartitionedCall/model_19/tf.math.sigmoid_8/Sigmoid"], "attr": {"T": {"type": "DT_FLOAT"}}}, {"name": "PartitionedCall/model_19/tf.math.add_11/Add", "op": "_FusedConv2D", "input": ["PartitionedCall/model_19/tf.math.multiply_37/Mul", "15104", "15106"], "device": "/device:CPU:0", "attr": {"leakyrelu_alpha": {"f": 0.2}, "epsilon": {"f": 0.0}, "use_cudnn_on_gpu": {"b": true}, "explicit_paddings": {"list": {}}, "num_host_args": {"i": "0"}, "num_args": {"i": "1"}, "filter_format": {"s": "SFdJTw=="}, "fused_ops": {"list": {"s": ["Qmlhc0FkZA=="]}}, "strides": {"list": {"i": ["1", "1", "1", "1"]}}, "padding": {"s": "U0FNRQ=="}, "dilations": {"list": {"i": ["1", "1", "1", "1"]}}, "data_format": {"s": "TkhXQw=="}, "TArgs": {"list": {"type": ["DT_FLOAT"]}}, "T": {"type": "DT_FLOAT"}}}, {"name": "PartitionedCall/model_19/tf.math.sigmoid_9/Sigmoid", "op": "Sigmoid", "input": ["PartitionedCall/model_19/tf.math.add_11/Add"], "attr": {"T": {"type": "DT_FLOAT"}}}, {"name": "PartitionedCall/model_19/tf.math.multiply_41/Mul", "op": "Mul", "input": ["PartitionedCall/model_19/tf.math.add_11/Add", "PartitionedCall/model_19/tf.math.sigmoid_9/Sigmoid"], "attr": {"T": {"type": "DT_FLOAT"}}}, {"name": "PartitionedCall/model_19/tf.math.add_13/Add", "op": "AddV2", "input": ["PartitionedCall/model_19/tf.strided_slice_3/StridedSlice", "PartitionedCall/model_19/tf.math.multiply_41/Mul"], "attr": {"T": {"type": "DT_FLOAT"}}}, {"name": "PartitionedCall/model_19/tf.math.add_14/Add", "op": "_FusedConv2D", "input": ["PartitionedCall/model_19/tf.math.add_13/Add", "15108", "15110"], "device": "/device:CPU:0", "attr": {"leakyrelu_alpha": {"f": 0.2}, "padding": {"s": "U0FNRQ=="}, "fused_ops": {"list": {"s": ["Qmlhc0FkZA=="]}}, "num_host_args": {"i": "0"}, "num_args": {"i": "1"}, "use_cudnn_on_gpu": {"b": true}, "explicit_paddings": {"list": {}}, "TArgs": {"list": {"type": ["DT_FLOAT"]}}, "data_format": {"s": "TkhXQw=="}, "T": {"type": "DT_FLOAT"}, "epsilon": {"f": 0.0}, "filter_format": {"s": "SFdJTw=="}, "strides": {"list": {"i": ["1", "1", "1", "1"]}}, "dilations": {"list": {"i": ["1", "1", "1", "1"]}}}}, {"name": "PartitionedCall/model_19/tf.math.sigmoid_10/Sigmoid", "op": "Sigmoid", "input": ["PartitionedCall/model_19/tf.math.add_14/Add"], "attr": {"T": {"type": "DT_FLOAT"}}}, {"name": "PartitionedCall/model_19/tf.math.multiply_47/Mul", "op": "Mul", "input": ["PartitionedCall/model_19/tf.math.add_14/Add", "PartitionedCall/model_19/tf.math.sigmoid_10/Sigmoid"], "attr": {"T": {"type": "DT_FLOAT"}}}, {"name": "PartitionedCall/model_19/tf.math.add_15/Add", "op": "_FusedConv2D", "input": ["PartitionedCall/model_19/tf.math.multiply_47/Mul", "15112", "15114"], "device": "/device:CPU:0", "attr": {"padding": {"s": "U0FNRQ=="}, "filter_format": {"s": "SFdJTw=="}, "use_cudnn_on_gpu": {"b": true}, "explicit_paddings": {"list": {}}, "T": {"type": "DT_FLOAT"}, "num_args": {"i": "1"}, "dilations": {"list": {"i": ["1", "1", "1", "1"]}}, "strides": {"list": {"i": ["1", "1", "1", "1"]}}, "data_format": {"s": "TkhXQw=="}, "epsilon": {"f": 0.0}, "TArgs": {"list": {"type": ["DT_FLOAT"]}}, "fused_ops": {"list": {"s": ["Qmlhc0FkZA=="]}}, "leakyrelu_alpha": {"f": 0.2}, "num_host_args": {"i": "0"}}}, {"name": "PartitionedCall/model_19/tf.math.sigmoid_11/Sigmoid", "op": "Sigmoid", "input": ["PartitionedCall/model_19/tf.math.add_15/Add"], "attr": {"T": {"type": "DT_FLOAT"}}}, {"name": "PartitionedCall/model_19/tf.math.multiply_51/Mul", "op": "Mul", "input": ["PartitionedCall/model_19/tf.math.add_15/Add", "PartitionedCall/model_19/tf.math.sigmoid_11/Sigmoid"], "attr": {"T": {"type": "DT_FLOAT"}}}, {"name": "PartitionedCall/model_19/tf.math.add_17/Add", "op": "AddV2", "input": ["PartitionedCall/model_19/tf.math.add_13/Add", "PartitionedCall/model_19/tf.math.multiply_51/Mul"], "attr": {"T": {"type": "DT_FLOAT"}}}, {"name": "PartitionedCall/model_19/tf.concat_1/concat", "op": "ConcatV2", "input": ["PartitionedCall/model_19/tf.strided_slice_2/StridedSlice", "PartitionedCall/model_19/tf.strided_slice_3/StridedSlice", "PartitionedCall/model_19/tf.math.add_13/Add", "PartitionedCall/model_19/tf.math.add_17/Add", "PartitionedCall/model_19/tf.concat_1/concat/axis"], "attr": {"Tidx": {"type": "DT_INT32"}, "T": {"type": "DT_FLOAT"}, "N": {"i": "4"}}}, {"name": "PartitionedCall/model_19/tf.math.add_18/Add", "op": "_FusedConv2D", "input": ["PartitionedCall/model_19/tf.concat_1/concat", "15120", "15122"], "device": "/device:CPU:0", "attr": {"num_args": {"i": "1"}, "num_host_args": {"i": "0"}, "strides": {"list": {"i": ["1", "1", "1", "1"]}}, "use_cudnn_on_gpu": {"b": true}, "leakyrelu_alpha": {"f": 0.2}, "TArgs": {"list": {"type": ["DT_FLOAT"]}}, "filter_format": {"s": "SFdJTw=="}, "data_format": {"s": "TkhXQw=="}, "epsilon": {"f": 0.0}, "explicit_paddings": {"list": {}}, "padding": {"s": "U0FNRQ=="}, "T": {"type": "DT_FLOAT"}, "dilations": {"list": {"i": ["1", "1", "1", "1"]}}, "fused_ops": {"list": {"s": ["Qmlhc0FkZA=="]}}}}, {"name": "PartitionedCall/model_19/tf.math.sigmoid_12/Sigmoid", "op": "Sigmoid", "input": ["PartitionedCall/model_19/tf.math.add_18/Add"], "attr": {"T": {"type": "DT_FLOAT"}}}, {"name": "PartitionedCall/model_19/tf.math.multiply_57/Mul", "op": "Mul", "input": ["PartitionedCall/model_19/tf.math.add_18/Add", "PartitionedCall/model_19/tf.math.sigmoid_12/Sigmoid"], "attr": {"T": {"type": "DT_FLOAT"}}}, {"name": "PartitionedCall/model_19/tf.compat.v1.pad_3/Pad", "op": "Pad", "input": ["PartitionedCall/model_19/tf.math.multiply_57/Mul", "15124"], "attr": {"Tpaddings": {"type": "DT_INT32"}, "T": {"type": "DT_FLOAT"}}}, {"name": "PartitionedCall/model_19/tf.math.add_19/Add", "op": "_FusedConv2D", "input": ["PartitionedCall/model_19/tf.compat.v1.pad_3/Pad", "15126", "15128"], "device": "/device:CPU:0", "attr": {"TArgs": {"list": {"type": ["DT_FLOAT"]}}, "leakyrelu_alpha": {"f": 0.2}, "padding": {"s": "VkFMSUQ="}, "strides": {"list": {"i": ["1", "2", "2", "1"]}}, "data_format": {"s": "TkhXQw=="}, "epsilon": {"f": 0.0}, "dilations": {"list": {"i": ["1", "1", "1", "1"]}}, "explicit_paddings": {"list": {}}, "fused_ops": {"list": {"s": ["Qmlhc0FkZA=="]}}, "num_args": {"i": "1"}, "use_cudnn_on_gpu": {"b": true}, "num_host_args": {"i": "0"}, "T": {"type": "DT_FLOAT"}, "filter_format": {"s": "SFdJTw=="}}}, {"name": "PartitionedCall/model_19/tf.math.sigmoid_13/Sigmoid", "op": "Sigmoid", "input": ["PartitionedCall/model_19/tf.math.add_19/Add"], "attr": {"T": {"type": "DT_FLOAT"}}}, {"name": "PartitionedCall/model_19/tf.math.multiply_61/Mul", "op": "Mul", "input": ["PartitionedCall/model_19/tf.math.add_19/Add", "PartitionedCall/model_19/tf.math.sigmoid_13/Sigmoid"], "attr": {"T": {"type": "DT_FLOAT"}}}, {"name": "PartitionedCall/model_19/tf.math.add_20/Add", "op": "_FusedConv2D", "input": ["PartitionedCall/model_19/tf.math.multiply_61/Mul", "15130", "15132"], "device": "/device:CPU:0", "attr": {"strides": {"list": {"i": ["1", "1", "1", "1"]}}, "TArgs": {"list": {"type": ["DT_FLOAT"]}}, "fused_ops": {"list": {"s": ["Qmlhc0FkZA=="]}}, "filter_format": {"s": "SFdJTw=="}, "num_args": {"i": "1"}, "leakyrelu_alpha": {"f": 0.2}, "dilations": {"list": {"i": ["1", "1", "1", "1"]}}, "data_format": {"s": "TkhXQw=="}, "epsilon": {"f": 0.0}, "explicit_paddings": {"list": {}}, "num_host_args": {"i": "0"}, "padding": {"s": "U0FNRQ=="}, "use_cudnn_on_gpu": {"b": true}, "T": {"type": "DT_FLOAT"}}}, {"name": "PartitionedCall/model_19/tf.math.sigmoid_14/Sigmoid", "op": "Sigmoid", "input": ["PartitionedCall/model_19/tf.math.add_20/Add"], "attr": {"T": {"type": "DT_FLOAT"}}}, {"name": "PartitionedCall/model_19/tf.math.multiply_65/Mul", "op": "Mul", "input": ["PartitionedCall/model_19/tf.math.add_20/Add", "PartitionedCall/model_19/tf.math.sigmoid_14/Sigmoid"], "attr": {"T": {"type": "DT_FLOAT"}}}, {"name": "PartitionedCall/model_19/tf.strided_slice_4/StridedSlice", "op": "StridedSlice", "input": ["PartitionedCall/model_19/tf.math.multiply_65/Mul", "15154", "15156", "PartitionedCall/model_19/tf.strided_slice_4/ones_like"], "attr": {"end_mask": {"i": "7"}, "shrink_axis_mask": {"i": "0"}, "Index": {"type": "DT_INT64"}, "ellipsis_mask": {"i": "0"}, "begin_mask": {"i": "15"}, "new_axis_mask": {"i": "0"}, "T": {"type": "DT_FLOAT"}}}, {"name": "PartitionedCall/model_19/tf.strided_slice_5/StridedSlice", "op": "StridedSlice", "input": ["PartitionedCall/model_19/tf.math.multiply_65/Mul", "15134", "15136", "PartitionedCall/model_19/tf.strided_slice_5/ones_like"], "attr": {"begin_mask": {"i": "7"}, "shrink_axis_mask": {"i": "0"}, "end_mask": {"i": "7"}, "new_axis_mask": {"i": "0"}, "T": {"type": "DT_FLOAT"}, "ellipsis_mask": {"i": "0"}, "Index": {"type": "DT_INT64"}}}, {"name": "PartitionedCall/model_19/tf.math.add_21/Add", "op": "_FusedConv2D", "input": ["PartitionedCall/model_19/tf.strided_slice_5/StridedSlice", "15138", "15140"], "device": "/device:CPU:0", "attr": {"leakyrelu_alpha": {"f": 0.2}, "num_host_args": {"i": "0"}, "T": {"type": "DT_FLOAT"}, "TArgs": {"list": {"type": ["DT_FLOAT"]}}, "filter_format": {"s": "SFdJTw=="}, "epsilon": {"f": 0.0}, "explicit_paddings": {"list": {}}, "padding": {"s": "U0FNRQ=="}, "dilations": {"list": {"i": ["1", "1", "1", "1"]}}, "num_args": {"i": "1"}, "fused_ops": {"list": {"s": ["Qmlhc0FkZA=="]}}, "strides": {"list": {"i": ["1", "1", "1", "1"]}}, "use_cudnn_on_gpu": {"b": true}, "data_format": {"s": "TkhXQw=="}}}, {"name": "PartitionedCall/model_19/tf.math.sigmoid_15/Sigmoid", "op": "Sigmoid", "input": ["PartitionedCall/model_19/tf.math.add_21/Add"], "attr": {"T": {"type": "DT_FLOAT"}}}, {"name": "PartitionedCall/model_19/tf.math.multiply_69/Mul", "op": "Mul", "input": ["PartitionedCall/model_19/tf.math.add_21/Add", "PartitionedCall/model_19/tf.math.sigmoid_15/Sigmoid"], "attr": {"T": {"type": "DT_FLOAT"}}}, {"name": "PartitionedCall/model_19/tf.math.add_22/Add", "op": "_FusedConv2D", "input": ["PartitionedCall/model_19/tf.math.multiply_69/Mul", "15142", "15144"], "device": "/device:CPU:0", "attr": {"filter_format": {"s": "SFdJTw=="}, "leakyrelu_alpha": {"f": 0.2}, "explicit_paddings": {"list": {}}, "epsilon": {"f": 0.0}, "TArgs": {"list": {"type": ["DT_FLOAT"]}}, "num_args": {"i": "1"}, "padding": {"s": "U0FNRQ=="}, "fused_ops": {"list": {"s": ["Qmlhc0FkZA=="]}}, "dilations": {"list": {"i": ["1", "1", "1", "1"]}}, "use_cudnn_on_gpu": {"b": true}, "num_host_args": {"i": "0"}, "T": {"type": "DT_FLOAT"}, "data_format": {"s": "TkhXQw=="}, "strides": {"list": {"i": ["1", "1", "1", "1"]}}}}, {"name": "PartitionedCall/model_19/tf.math.sigmoid_16/Sigmoid", "op": "Sigmoid", "input": ["PartitionedCall/model_19/tf.math.add_22/Add"], "attr": {"T": {"type": "DT_FLOAT"}}}, {"name": "PartitionedCall/model_19/tf.math.multiply_73/Mul", "op": "Mul", "input": ["PartitionedCall/model_19/tf.math.add_22/Add", "PartitionedCall/model_19/tf.math.sigmoid_16/Sigmoid"], "attr": {"T": {"type": "DT_FLOAT"}}}, {"name": "PartitionedCall/model_19/tf.math.add_24/Add", "op": "AddV2", "input": ["PartitionedCall/model_19/tf.strided_slice_5/StridedSlice", "PartitionedCall/model_19/tf.math.multiply_73/Mul"], "attr": {"T": {"type": "DT_FLOAT"}}}, {"name": "PartitionedCall/model_19/tf.math.add_25/Add", "op": "_FusedConv2D", "input": ["PartitionedCall/model_19/tf.math.add_24/Add", "15146", "15148"], "device": "/device:CPU:0", "attr": {"padding": {"s": "U0FNRQ=="}, "epsilon": {"f": 0.0}, "explicit_paddings": {"list": {}}, "filter_format": {"s": "SFdJTw=="}, "fused_ops": {"list": {"s": ["Qmlhc0FkZA=="]}}, "dilations": {"list": {"i": ["1", "1", "1", "1"]}}, "num_host_args": {"i": "0"}, "TArgs": {"list": {"type": ["DT_FLOAT"]}}, "T": {"type": "DT_FLOAT"}, "leakyrelu_alpha": {"f": 0.2}, "num_args": {"i": "1"}, "data_format": {"s": "TkhXQw=="}, "use_cudnn_on_gpu": {"b": true}, "strides": {"list": {"i": ["1", "1", "1", "1"]}}}}, {"name": "PartitionedCall/model_19/tf.math.sigmoid_17/Sigmoid", "op": "Sigmoid", "input": ["PartitionedCall/model_19/tf.math.add_25/Add"], "attr": {"T": {"type": "DT_FLOAT"}}}, {"name": "PartitionedCall/model_19/tf.math.multiply_79/Mul", "op": "Mul", "input": ["PartitionedCall/model_19/tf.math.add_25/Add", "PartitionedCall/model_19/tf.math.sigmoid_17/Sigmoid"], "attr": {"T": {"type": "DT_FLOAT"}}}, {"name": "PartitionedCall/model_19/tf.math.add_26/Add", "op": "_FusedConv2D", "input": ["PartitionedCall/model_19/tf.math.multiply_79/Mul", "15150", "15152"], "device": "/device:CPU:0", "attr": {"TArgs": {"list": {"type": ["DT_FLOAT"]}}, "num_args": {"i": "1"}, "epsilon": {"f": 0.0}, "dilations": {"list": {"i": ["1", "1", "1", "1"]}}, "fused_ops": {"list": {"s": ["Qmlhc0FkZA=="]}}, "padding": {"s": "U0FNRQ=="}, "strides": {"list": {"i": ["1", "1", "1", "1"]}}, "leakyrelu_alpha": {"f": 0.2}, "filter_format": {"s": "SFdJTw=="}, "data_format": {"s": "TkhXQw=="}, "explicit_paddings": {"list": {}}, "T": {"type": "DT_FLOAT"}, "use_cudnn_on_gpu": {"b": true}, "num_host_args": {"i": "0"}}}, {"name": "PartitionedCall/model_19/tf.math.sigmoid_18/Sigmoid", "op": "Sigmoid", "input": ["PartitionedCall/model_19/tf.math.add_26/Add"], "attr": {"T": {"type": "DT_FLOAT"}}}, {"name": "PartitionedCall/model_19/tf.math.multiply_83/Mul", "op": "Mul", "input": ["PartitionedCall/model_19/tf.math.add_26/Add", "PartitionedCall/model_19/tf.math.sigmoid_18/Sigmoid"], "attr": {"T": {"type": "DT_FLOAT"}}}, {"name": "PartitionedCall/model_19/tf.math.add_28/Add", "op": "AddV2", "input": ["PartitionedCall/model_19/tf.math.add_24/Add", "PartitionedCall/model_19/tf.math.multiply_83/Mul"], "attr": {"T": {"type": "DT_FLOAT"}}}, {"name": "PartitionedCall/model_19/tf.concat_2/concat", "op": "ConcatV2", "input": ["PartitionedCall/model_19/tf.strided_slice_4/StridedSlice", "PartitionedCall/model_19/tf.strided_slice_5/StridedSlice", "PartitionedCall/model_19/tf.math.add_24/Add", "PartitionedCall/model_19/tf.math.add_28/Add", "PartitionedCall/model_19/tf.concat_2/concat/axis"], "attr": {"Tidx": {"type": "DT_INT32"}, "N": {"i": "4"}, "T": {"type": "DT_FLOAT"}}}, {"name": "PartitionedCall/model_19/tf.math.add_29/Add", "op": "_FusedConv2D", "input": ["PartitionedCall/model_19/tf.concat_2/concat", "15158", "15160"], "device": "/device:CPU:0", "attr": {"use_cudnn_on_gpu": {"b": true}, "leakyrelu_alpha": {"f": 0.2}, "num_args": {"i": "1"}, "dilations": {"list": {"i": ["1", "1", "1", "1"]}}, "strides": {"list": {"i": ["1", "1", "1", "1"]}}, "data_format": {"s": "TkhXQw=="}, "padding": {"s": "U0FNRQ=="}, "fused_ops": {"list": {"s": ["Qmlhc0FkZA=="]}}, "epsilon": {"f": 0.0}, "TArgs": {"list": {"type": ["DT_FLOAT"]}}, "num_host_args": {"i": "0"}, "T": {"type": "DT_FLOAT"}, "explicit_paddings": {"list": {}}, "filter_format": {"s": "SFdJTw=="}}}, {"name": "PartitionedCall/model_19/tf.math.sigmoid_19/Sigmoid", "op": "Sigmoid", "input": ["PartitionedCall/model_19/tf.math.add_29/Add"], "attr": {"T": {"type": "DT_FLOAT"}}}, {"name": "PartitionedCall/model_19/tf.math.multiply_89/Mul", "op": "Mul", "input": ["PartitionedCall/model_19/tf.math.add_29/Add", "PartitionedCall/model_19/tf.math.sigmoid_19/Sigmoid"], "attr": {"T": {"type": "DT_FLOAT"}}}, {"name": "PartitionedCall/model_19/tf.compat.v1.pad_4/Pad", "op": "Pad", "input": ["PartitionedCall/model_19/tf.math.multiply_89/Mul", "15162"], "attr": {"T": {"type": "DT_FLOAT"}, "Tpaddings": {"type": "DT_INT32"}}}, {"name": "PartitionedCall/model_19/tf.math.add_30/Add", "op": "_FusedConv2D", "input": ["PartitionedCall/model_19/tf.compat.v1.pad_4/Pad", "15164", "15166"], "device": "/device:CPU:0", "attr": {"num_args": {"i": "1"}, "epsilon": {"f": 0.0}, "padding": {"s": "VkFMSUQ="}, "dilations": {"list": {"i": ["1", "1", "1", "1"]}}, "num_host_args": {"i": "0"}, "strides": {"list": {"i": ["1", "2", "2", "1"]}}, "use_cudnn_on_gpu": {"b": true}, "TArgs": {"list": {"type": ["DT_FLOAT"]}}, "data_format": {"s": "TkhXQw=="}, "explicit_paddings": {"list": {}}, "fused_ops": {"list": {"s": ["Qmlhc0FkZA=="]}}, "leakyrelu_alpha": {"f": 0.2}, "filter_format": {"s": "SFdJTw=="}, "T": {"type": "DT_FLOAT"}}}, {"name": "PartitionedCall/model_19/tf.math.sigmoid_20/Sigmoid", "op": "Sigmoid", "input": ["PartitionedCall/model_19/tf.math.add_30/Add"], "attr": {"T": {"type": "DT_FLOAT"}}}, {"name": "PartitionedCall/model_19/tf.math.multiply_93/Mul", "op": "Mul", "input": ["PartitionedCall/model_19/tf.math.add_30/Add", "PartitionedCall/model_19/tf.math.sigmoid_20/Sigmoid"], "attr": {"T": {"type": "DT_FLOAT"}}}, {"name": "PartitionedCall/model_19/tf.math.add_31/Add", "op": "_FusedConv2D", "input": ["PartitionedCall/model_19/tf.math.multiply_93/Mul", "15168", "15170"], "device": "/device:CPU:0", "attr": {"epsilon": {"f": 0.0}, "TArgs": {"list": {"type": ["DT_FLOAT"]}}, "num_host_args": {"i": "0"}, "fused_ops": {"list": {"s": ["Qmlhc0FkZA=="]}}, "strides": {"list": {"i": ["1", "1", "1", "1"]}}, "padding": {"s": "U0FNRQ=="}, "use_cudnn_on_gpu": {"b": true}, "leakyrelu_alpha": {"f": 0.2}, "num_args": {"i": "1"}, "filter_format": {"s": "SFdJTw=="}, "dilations": {"list": {"i": ["1", "1", "1", "1"]}}, "explicit_paddings": {"list": {}}, "data_format": {"s": "TkhXQw=="}, "T": {"type": "DT_FLOAT"}}}, {"name": "PartitionedCall/model_19/tf.math.sigmoid_21/Sigmoid", "op": "Sigmoid", "input": ["PartitionedCall/model_19/tf.math.add_31/Add"], "attr": {"T": {"type": "DT_FLOAT"}}}, {"name": "PartitionedCall/model_19/tf.math.multiply_97/Mul", "op": "Mul", "input": ["PartitionedCall/model_19/tf.math.add_31/Add", "PartitionedCall/model_19/tf.math.sigmoid_21/Sigmoid"], "attr": {"T": {"type": "DT_FLOAT"}}}, {"name": "PartitionedCall/model_19/tf.strided_slice_6/StridedSlice", "op": "StridedSlice", "input": ["PartitionedCall/model_19/tf.math.multiply_97/Mul", "15184", "15186", "PartitionedCall/model_19/tf.strided_slice_6/ones_like"], "attr": {"begin_mask": {"i": "15"}, "ellipsis_mask": {"i": "0"}, "T": {"type": "DT_FLOAT"}, "Index": {"type": "DT_INT64"}, "end_mask": {"i": "7"}, "new_axis_mask": {"i": "0"}, "shrink_axis_mask": {"i": "0"}}}, {"name": "PartitionedCall/model_19/tf.strided_slice_7/StridedSlice", "op": "StridedSlice", "input": ["PartitionedCall/model_19/tf.math.multiply_97/Mul", "15172", "15174", "PartitionedCall/model_19/tf.strided_slice_7/ones_like"], "attr": {"shrink_axis_mask": {"i": "0"}, "Index": {"type": "DT_INT64"}, "ellipsis_mask": {"i": "0"}, "begin_mask": {"i": "7"}, "end_mask": {"i": "7"}, "T": {"type": "DT_FLOAT"}, "new_axis_mask": {"i": "0"}}}, {"name": "PartitionedCall/model_19/tf.math.add_32/Add", "op": "_FusedConv2D", "input": ["PartitionedCall/model_19/tf.strided_slice_7/StridedSlice", "15176", "15178"], "device": "/device:CPU:0", "attr": {"padding": {"s": "U0FNRQ=="}, "num_host_args": {"i": "0"}, "data_format": {"s": "TkhXQw=="}, "leakyrelu_alpha": {"f": 0.2}, "strides": {"list": {"i": ["1", "1", "1", "1"]}}, "fused_ops": {"list": {"s": ["Qmlhc0FkZA=="]}}, "use_cudnn_on_gpu": {"b": true}, "dilations": {"list": {"i": ["1", "1", "1", "1"]}}, "T": {"type": "DT_FLOAT"}, "TArgs": {"list": {"type": ["DT_FLOAT"]}}, "explicit_paddings": {"list": {}}, "filter_format": {"s": "SFdJTw=="}, "num_args": {"i": "1"}, "epsilon": {"f": 0.0}}}, {"name": "PartitionedCall/model_19/tf.math.sigmoid_22/Sigmoid", "op": "Sigmoid", "input": ["PartitionedCall/model_19/tf.math.add_32/Add"], "attr": {"T": {"type": "DT_FLOAT"}}}, {"name": "PartitionedCall/model_19/tf.math.multiply_101/Mul", "op": "Mul", "input": ["PartitionedCall/model_19/tf.math.add_32/Add", "PartitionedCall/model_19/tf.math.sigmoid_22/Sigmoid"], "attr": {"T": {"type": "DT_FLOAT"}}}, {"name": "PartitionedCall/model_19/tf.math.add_33/Add", "op": "_FusedConv2D", "input": ["PartitionedCall/model_19/tf.math.multiply_101/Mul", "15180", "15182"], "device": "/device:CPU:0", "attr": {"fused_ops": {"list": {"s": ["Qmlhc0FkZA=="]}}, "num_args": {"i": "1"}, "epsilon": {"f": 0.0}, "use_cudnn_on_gpu": {"b": true}, "padding": {"s": "U0FNRQ=="}, "dilations": {"list": {"i": ["1", "1", "1", "1"]}}, "num_host_args": {"i": "0"}, "TArgs": {"list": {"type": ["DT_FLOAT"]}}, "data_format": {"s": "TkhXQw=="}, "strides": {"list": {"i": ["1", "1", "1", "1"]}}, "explicit_paddings": {"list": {}}, "filter_format": {"s": "SFdJTw=="}, "leakyrelu_alpha": {"f": 0.2}, "T": {"type": "DT_FLOAT"}}}, {"name": "PartitionedCall/model_19/tf.math.sigmoid_23/Sigmoid", "op": "Sigmoid", "input": ["PartitionedCall/model_19/tf.math.add_33/Add"], "attr": {"T": {"type": "DT_FLOAT"}}}, {"name": "PartitionedCall/model_19/tf.math.multiply_105/Mul", "op": "Mul", "input": ["PartitionedCall/model_19/tf.math.add_33/Add", "PartitionedCall/model_19/tf.math.sigmoid_23/Sigmoid"], "attr": {"T": {"type": "DT_FLOAT"}}}, {"name": "PartitionedCall/model_19/tf.math.add_35/Add", "op": "AddV2", "input": ["PartitionedCall/model_19/tf.strided_slice_7/StridedSlice", "PartitionedCall/model_19/tf.math.multiply_105/Mul"], "attr": {"T": {"type": "DT_FLOAT"}}}, {"name": "PartitionedCall/model_19/tf.concat_3/concat", "op": "ConcatV2", "input": ["PartitionedCall/model_19/tf.strided_slice_6/StridedSlice", "PartitionedCall/model_19/tf.strided_slice_7/StridedSlice", "PartitionedCall/model_19/tf.math.add_35/Add", "PartitionedCall/model_19/tf.concat_3/concat/axis"], "attr": {"T": {"type": "DT_FLOAT"}, "N": {"i": "3"}, "Tidx": {"type": "DT_INT32"}}}, {"name": "PartitionedCall/model_19/tf.math.add_36/Add", "op": "_FusedConv2D", "input": ["PartitionedCall/model_19/tf.concat_3/concat", "15188", "15190"], "device": "/device:CPU:0", "attr": {"epsilon": {"f": 0.0}, "num_host_args": {"i": "0"}, "data_format": {"s": "TkhXQw=="}, "filter_format": {"s": "SFdJTw=="}, "padding": {"s": "U0FNRQ=="}, "use_cudnn_on_gpu": {"b": true}, "TArgs": {"list": {"type": ["DT_FLOAT"]}}, "T": {"type": "DT_FLOAT"}, "leakyrelu_alpha": {"f": 0.2}, "fused_ops": {"list": {"s": ["Qmlhc0FkZA=="]}}, "explicit_paddings": {"list": {}}, "strides": {"list": {"i": ["1", "1", "1", "1"]}}, "num_args": {"i": "1"}, "dilations": {"list": {"i": ["1", "1", "1", "1"]}}}}, {"name": "PartitionedCall/model_19/tf.math.sigmoid_24/Sigmoid", "op": "Sigmoid", "input": ["PartitionedCall/model_19/tf.math.add_36/Add"], "attr": {"T": {"type": "DT_FLOAT"}}}, {"name": "PartitionedCall/model_19/tf.math.multiply_111/Mul", "op": "Mul", "input": ["PartitionedCall/model_19/tf.math.add_36/Add", "PartitionedCall/model_19/tf.math.sigmoid_24/Sigmoid"], "attr": {"T": {"type": "DT_FLOAT"}}}, {"name": "PartitionedCall/model_19/tf.math.add_37/Add", "op": "_FusedConv2D", "input": ["PartitionedCall/model_19/tf.math.multiply_111/Mul", "15192", "15194"], "device": "/device:CPU:0", "attr": {"leakyrelu_alpha": {"f": 0.2}, "explicit_paddings": {"list": {}}, "filter_format": {"s": "SFdJTw=="}, "num_host_args": {"i": "0"}, "epsilon": {"f": 0.0}, "data_format": {"s": "TkhXQw=="}, "TArgs": {"list": {"type": ["DT_FLOAT"]}}, "strides": {"list": {"i": ["1", "1", "1", "1"]}}, "use_cudnn_on_gpu": {"b": true}, "padding": {"s": "U0FNRQ=="}, "T": {"type": "DT_FLOAT"}, "num_args": {"i": "1"}, "fused_ops": {"list": {"s": ["Qmlhc0FkZA=="]}}, "dilations": {"list": {"i": ["1", "1", "1", "1"]}}}}, {"name": "PartitionedCall/model_19/tf.math.sigmoid_25/Sigmoid", "op": "Sigmoid", "input": ["PartitionedCall/model_19/tf.math.add_37/Add"], "attr": {"T": {"type": "DT_FLOAT"}}}, {"name": "PartitionedCall/model_19/tf.math.multiply_115/Mul", "op": "Mul", "input": ["PartitionedCall/model_19/tf.math.add_37/Add", "PartitionedCall/model_19/tf.math.sigmoid_25/Sigmoid"], "attr": {"T": {"type": "DT_FLOAT"}}}, {"name": "PartitionedCall/model_19/tf.compat.v1.nn.pool/max_pool", "op": "MaxPool", "input": ["PartitionedCall/model_19/tf.math.multiply_115/Mul"], "attr": {"ksize": {"list": {"i": ["1", "5", "5", "1"]}}, "strides": {"list": {"i": ["1", "1", "1", "1"]}}, "explicit_paddings": {"list": {}}, "T": {"type": "DT_FLOAT"}, "data_format": {"s": "TkhXQw=="}, "padding": {"s": "U0FNRQ=="}}}, {"name": "PartitionedCall/model_19/tf.compat.v1.nn.pool_1/max_pool", "op": "MaxPool", "input": ["PartitionedCall/model_19/tf.compat.v1.nn.pool/max_pool"], "attr": {"explicit_paddings": {"list": {}}, "data_format": {"s": "TkhXQw=="}, "ksize": {"list": {"i": ["1", "5", "5", "1"]}}, "strides": {"list": {"i": ["1", "1", "1", "1"]}}, "T": {"type": "DT_FLOAT"}, "padding": {"s": "U0FNRQ=="}}}, {"name": "PartitionedCall/model_19/tf.compat.v1.nn.pool_2/max_pool", "op": "MaxPool", "input": ["PartitionedCall/model_19/tf.compat.v1.nn.pool_1/max_pool"], "attr": {"padding": {"s": "U0FNRQ=="}, "strides": {"list": {"i": ["1", "1", "1", "1"]}}, "data_format": {"s": "TkhXQw=="}, "explicit_paddings": {"list": {}}, "T": {"type": "DT_FLOAT"}, "ksize": {"list": {"i": ["1", "5", "5", "1"]}}}}, {"name": "PartitionedCall/model_19/tf.concat_4/concat", "op": "ConcatV2", "input": ["PartitionedCall/model_19/tf.math.multiply_115/Mul", "PartitionedCall/model_19/tf.compat.v1.nn.pool/max_pool", "PartitionedCall/model_19/tf.compat.v1.nn.pool_1/max_pool", "PartitionedCall/model_19/tf.compat.v1.nn.pool_2/max_pool", "PartitionedCall/model_19/tf.concat_4/concat/axis"], "attr": {"Tidx": {"type": "DT_INT32"}, "N": {"i": "4"}, "T": {"type": "DT_FLOAT"}}}, {"name": "PartitionedCall/model_19/tf.math.add_38/Add", "op": "_FusedConv2D", "input": ["PartitionedCall/model_19/tf.concat_4/concat", "15196", "15198"], "device": "/device:CPU:0", "attr": {"explicit_paddings": {"list": {}}, "leakyrelu_alpha": {"f": 0.2}, "epsilon": {"f": 0.0}, "dilations": {"list": {"i": ["1", "1", "1", "1"]}}, "fused_ops": {"list": {"s": ["Qmlhc0FkZA=="]}}, "T": {"type": "DT_FLOAT"}, "strides": {"list": {"i": ["1", "1", "1", "1"]}}, "TArgs": {"list": {"type": ["DT_FLOAT"]}}, "filter_format": {"s": "SFdJTw=="}, "padding": {"s": "U0FNRQ=="}, "num_args": {"i": "1"}, "data_format": {"s": "TkhXQw=="}, "use_cudnn_on_gpu": {"b": true}, "num_host_args": {"i": "0"}}}, {"name": "PartitionedCall/model_19/tf.math.sigmoid_26/Sigmoid", "op": "Sigmoid", "input": ["PartitionedCall/model_19/tf.math.add_38/Add"], "attr": {"T": {"type": "DT_FLOAT"}}}, {"name": "PartitionedCall/model_19/tf.math.multiply_119/Mul", "op": "Mul", "input": ["PartitionedCall/model_19/tf.math.add_38/Add", "PartitionedCall/model_19/tf.math.sigmoid_26/Sigmoid"], "attr": {"T": {"type": "DT_FLOAT"}}}, {"name": "PartitionedCall/model_19/tf.image.resize/resize/ResizeNearestNeighbor", "op": "ResizeNearestNeighbor", "input": ["PartitionedCall/model_19/tf.math.multiply_119/Mul", "PartitionedCall/model_19/tf.image.resize/resize/size"], "attr": {"half_pixel_centers": {"b": true}, "T": {"type": "DT_FLOAT"}, "align_corners": {"b": false}}}, {"name": "PartitionedCall/model_19/tf.concat_5/concat", "op": "ConcatV2", "input": ["PartitionedCall/model_19/tf.image.resize/resize/ResizeNearestNeighbor", "PartitionedCall/model_19/tf.math.multiply_89/Mul", "PartitionedCall/model_19/tf.concat_5/concat/axis"], "attr": {"N": {"i": "2"}, "Tidx": {"type": "DT_INT32"}, "T": {"type": "DT_FLOAT"}}}, {"name": "PartitionedCall/model_19/tf.math.add_39/Add", "op": "_FusedConv2D", "input": ["PartitionedCall/model_19/tf.concat_5/concat", "15200", "15202"], "device": "/device:CPU:0", "attr": {"num_args": {"i": "1"}, "data_format": {"s": "TkhXQw=="}, "T": {"type": "DT_FLOAT"}, "padding": {"s": "U0FNRQ=="}, "num_host_args": {"i": "0"}, "explicit_paddings": {"list": {}}, "leakyrelu_alpha": {"f": 0.2}, "strides": {"list": {"i": ["1", "1", "1", "1"]}}, "use_cudnn_on_gpu": {"b": true}, "epsilon": {"f": 0.0}, "filter_format": {"s": "SFdJTw=="}, "dilations": {"list": {"i": ["1", "1", "1", "1"]}}, "fused_ops": {"list": {"s": ["Qmlhc0FkZA=="]}}, "TArgs": {"list": {"type": ["DT_FLOAT"]}}}}, {"name": "PartitionedCall/model_19/tf.math.sigmoid_27/Sigmoid", "op": "Sigmoid", "input": ["PartitionedCall/model_19/tf.math.add_39/Add"], "attr": {"T": {"type": "DT_FLOAT"}}}, {"name": "PartitionedCall/model_19/tf.math.multiply_123/Mul", "op": "Mul", "input": ["PartitionedCall/model_19/tf.math.add_39/Add", "PartitionedCall/model_19/tf.math.sigmoid_27/Sigmoid"], "attr": {"T": {"type": "DT_FLOAT"}}}, {"name": "PartitionedCall/model_19/tf.strided_slice_8/StridedSlice", "op": "StridedSlice", "input": ["PartitionedCall/model_19/tf.math.multiply_123/Mul", "15216", "15218", "PartitionedCall/model_19/tf.strided_slice_8/ones_like"], "attr": {"new_axis_mask": {"i": "0"}, "ellipsis_mask": {"i": "0"}, "Index": {"type": "DT_INT64"}, "end_mask": {"i": "7"}, "T": {"type": "DT_FLOAT"}, "shrink_axis_mask": {"i": "0"}, "begin_mask": {"i": "15"}}}, {"name": "PartitionedCall/model_19/tf.strided_slice_9/StridedSlice", "op": "StridedSlice", "input": ["PartitionedCall/model_19/tf.math.multiply_123/Mul", "15204", "15206", "PartitionedCall/model_19/tf.strided_slice_9/ones_like"], "attr": {"shrink_axis_mask": {"i": "0"}, "Index": {"type": "DT_INT64"}, "ellipsis_mask": {"i": "0"}, "end_mask": {"i": "7"}, "new_axis_mask": {"i": "0"}, "begin_mask": {"i": "7"}, "T": {"type": "DT_FLOAT"}}}, {"name": "PartitionedCall/model_19/tf.math.add_40/Add", "op": "_FusedConv2D", "input": ["PartitionedCall/model_19/tf.strided_slice_9/StridedSlice", "15208", "15210"], "device": "/device:CPU:0", "attr": {"use_cudnn_on_gpu": {"b": true}, "fused_ops": {"list": {"s": ["Qmlhc0FkZA=="]}}, "explicit_paddings": {"list": {}}, "epsilon": {"f": 0.0}, "TArgs": {"list": {"type": ["DT_FLOAT"]}}, "data_format": {"s": "TkhXQw=="}, "dilations": {"list": {"i": ["1", "1", "1", "1"]}}, "T": {"type": "DT_FLOAT"}, "strides": {"list": {"i": ["1", "1", "1", "1"]}}, "padding": {"s": "U0FNRQ=="}, "num_host_args": {"i": "0"}, "filter_format": {"s": "SFdJTw=="}, "leakyrelu_alpha": {"f": 0.2}, "num_args": {"i": "1"}}}, {"name": "PartitionedCall/model_19/tf.math.sigmoid_28/Sigmoid", "op": "Sigmoid", "input": ["PartitionedCall/model_19/tf.math.add_40/Add"], "attr": {"T": {"type": "DT_FLOAT"}}}, {"name": "PartitionedCall/model_19/tf.math.multiply_127/Mul", "op": "Mul", "input": ["PartitionedCall/model_19/tf.math.add_40/Add", "PartitionedCall/model_19/tf.math.sigmoid_28/Sigmoid"], "attr": {"T": {"type": "DT_FLOAT"}}}, {"name": "PartitionedCall/model_19/tf.math.add_41/Add", "op": "_FusedConv2D", "input": ["PartitionedCall/model_19/tf.math.multiply_127/Mul", "15212", "15214"], "device": "/device:CPU:0", "attr": {"epsilon": {"f": 0.0}, "data_format": {"s": "TkhXQw=="}, "explicit_paddings": {"list": {}}, "filter_format": {"s": "SFdJTw=="}, "strides": {"list": {"i": ["1", "1", "1", "1"]}}, "num_args": {"i": "1"}, "use_cudnn_on_gpu": {"b": true}, "dilations": {"list": {"i": ["1", "1", "1", "1"]}}, "num_host_args": {"i": "0"}, "T": {"type": "DT_FLOAT"}, "TArgs": {"list": {"type": ["DT_FLOAT"]}}, "fused_ops": {"list": {"s": ["Qmlhc0FkZA=="]}}, "padding": {"s": "U0FNRQ=="}, "leakyrelu_alpha": {"f": 0.2}}}, {"name": "PartitionedCall/model_19/tf.math.sigmoid_29/Sigmoid", "op": "Sigmoid", "input": ["PartitionedCall/model_19/tf.math.add_41/Add"], "attr": {"T": {"type": "DT_FLOAT"}}}, {"name": "PartitionedCall/model_19/tf.math.multiply_131/Mul", "op": "Mul", "input": ["PartitionedCall/model_19/tf.math.add_41/Add", "PartitionedCall/model_19/tf.math.sigmoid_29/Sigmoid"], "attr": {"T": {"type": "DT_FLOAT"}}}, {"name": "PartitionedCall/model_19/tf.concat_6/concat", "op": "ConcatV2", "input": ["PartitionedCall/model_19/tf.strided_slice_8/StridedSlice", "PartitionedCall/model_19/tf.strided_slice_9/StridedSlice", "PartitionedCall/model_19/tf.math.multiply_131/Mul", "PartitionedCall/model_19/tf.concat_6/concat/axis"], "attr": {"T": {"type": "DT_FLOAT"}, "Tidx": {"type": "DT_INT32"}, "N": {"i": "3"}}}, {"name": "PartitionedCall/model_19/tf.math.add_42/Add", "op": "_FusedConv2D", "input": ["PartitionedCall/model_19/tf.concat_6/concat", "15220", "15222"], "device": "/device:CPU:0", "attr": {"strides": {"list": {"i": ["1", "1", "1", "1"]}}, "padding": {"s": "U0FNRQ=="}, "dilations": {"list": {"i": ["1", "1", "1", "1"]}}, "filter_format": {"s": "SFdJTw=="}, "num_host_args": {"i": "0"}, "fused_ops": {"list": {"s": ["Qmlhc0FkZA=="]}}, "TArgs": {"list": {"type": ["DT_FLOAT"]}}, "use_cudnn_on_gpu": {"b": true}, "leakyrelu_alpha": {"f": 0.2}, "T": {"type": "DT_FLOAT"}, "data_format": {"s": "TkhXQw=="}, "explicit_paddings": {"list": {}}, "epsilon": {"f": 0.0}, "num_args": {"i": "1"}}}, {"name": "PartitionedCall/model_19/tf.math.sigmoid_30/Sigmoid", "op": "Sigmoid", "input": ["PartitionedCall/model_19/tf.math.add_42/Add"], "attr": {"T": {"type": "DT_FLOAT"}}}, {"name": "PartitionedCall/model_19/tf.math.multiply_135/Mul", "op": "Mul", "input": ["PartitionedCall/model_19/tf.math.add_42/Add", "PartitionedCall/model_19/tf.math.sigmoid_30/Sigmoid"], "attr": {"T": {"type": "DT_FLOAT"}}}, {"name": "PartitionedCall/model_19/tf.image.resize_1/resize/ResizeNearestNeighbor", "op": "ResizeNearestNeighbor", "input": ["PartitionedCall/model_19/tf.math.multiply_135/Mul", "PartitionedCall/model_19/tf.image.resize_1/resize/size"], "attr": {"T": {"type": "DT_FLOAT"}, "half_pixel_centers": {"b": true}, "align_corners": {"b": false}}}, {"name": "PartitionedCall/model_19/tf.concat_7/concat", "op": "ConcatV2", "input": ["PartitionedCall/model_19/tf.image.resize_1/resize/ResizeNearestNeighbor", "PartitionedCall/model_19/tf.math.multiply_57/Mul", "PartitionedCall/model_19/tf.concat_7/concat/axis"], "attr": {"Tidx": {"type": "DT_INT32"}, "N": {"i": "2"}, "T": {"type": "DT_FLOAT"}}}, {"name": "PartitionedCall/model_19/tf.math.add_43/Add", "op": "_FusedConv2D", "input": ["PartitionedCall/model_19/tf.concat_7/concat", "15224", "15226"], "device": "/device:CPU:0", "attr": {"data_format": {"s": "TkhXQw=="}, "filter_format": {"s": "SFdJTw=="}, "epsilon": {"f": 0.0}, "explicit_paddings": {"list": {}}, "T": {"type": "DT_FLOAT"}, "leakyrelu_alpha": {"f": 0.2}, "use_cudnn_on_gpu": {"b": true}, "num_host_args": {"i": "0"}, "fused_ops": {"list": {"s": ["Qmlhc0FkZA=="]}}, "num_args": {"i": "1"}, "dilations": {"list": {"i": ["1", "1", "1", "1"]}}, "padding": {"s": "U0FNRQ=="}, "TArgs": {"list": {"type": ["DT_FLOAT"]}}, "strides": {"list": {"i": ["1", "1", "1", "1"]}}}}, {"name": "PartitionedCall/model_19/tf.math.sigmoid_31/Sigmoid", "op": "Sigmoid", "input": ["PartitionedCall/model_19/tf.math.add_43/Add"], "attr": {"T": {"type": "DT_FLOAT"}}}, {"name": "PartitionedCall/model_19/tf.math.multiply_139/Mul", "op": "Mul", "input": ["PartitionedCall/model_19/tf.math.add_43/Add", "PartitionedCall/model_19/tf.math.sigmoid_31/Sigmoid"], "attr": {"T": {"type": "DT_FLOAT"}}}, {"name": "PartitionedCall/model_19/tf.strided_slice_10/StridedSlice", "op": "StridedSlice", "input": ["PartitionedCall/model_19/tf.math.multiply_139/Mul", "15240", "15242", "PartitionedCall/model_19/tf.strided_slice_10/ones_like"], "attr": {"begin_mask": {"i": "15"}, "T": {"type": "DT_FLOAT"}, "new_axis_mask": {"i": "0"}, "end_mask": {"i": "7"}, "Index": {"type": "DT_INT64"}, "shrink_axis_mask": {"i": "0"}, "ellipsis_mask": {"i": "0"}}}, {"name": "PartitionedCall/model_19/tf.strided_slice_11/StridedSlice", "op": "StridedSlice", "input": ["PartitionedCall/model_19/tf.math.multiply_139/Mul", "15228", "15230", "PartitionedCall/model_19/tf.strided_slice_11/ones_like"], "attr": {"shrink_axis_mask": {"i": "0"}, "ellipsis_mask": {"i": "0"}, "begin_mask": {"i": "7"}, "T": {"type": "DT_FLOAT"}, "end_mask": {"i": "7"}, "Index": {"type": "DT_INT64"}, "new_axis_mask": {"i": "0"}}}, {"name": "PartitionedCall/model_19/tf.math.add_44/Add", "op": "_FusedConv2D", "input": ["PartitionedCall/model_19/tf.strided_slice_11/StridedSlice", "15232", "15234"], "device": "/device:CPU:0", "attr": {"use_cudnn_on_gpu": {"b": true}, "strides": {"list": {"i": ["1", "1", "1", "1"]}}, "leakyrelu_alpha": {"f": 0.2}, "TArgs": {"list": {"type": ["DT_FLOAT"]}}, "epsilon": {"f": 0.0}, "padding": {"s": "U0FNRQ=="}, "T": {"type": "DT_FLOAT"}, "num_args": {"i": "1"}, "dilations": {"list": {"i": ["1", "1", "1", "1"]}}, "data_format": {"s": "TkhXQw=="}, "filter_format": {"s": "SFdJTw=="}, "fused_ops": {"list": {"s": ["Qmlhc0FkZA=="]}}, "num_host_args": {"i": "0"}, "explicit_paddings": {"list": {}}}}, {"name": "PartitionedCall/model_19/tf.math.sigmoid_32/Sigmoid", "op": "Sigmoid", "input": ["PartitionedCall/model_19/tf.math.add_44/Add"], "attr": {"T": {"type": "DT_FLOAT"}}}, {"name": "PartitionedCall/model_19/tf.math.multiply_143/Mul", "op": "Mul", "input": ["PartitionedCall/model_19/tf.math.add_44/Add", "PartitionedCall/model_19/tf.math.sigmoid_32/Sigmoid"], "attr": {"T": {"type": "DT_FLOAT"}}}, {"name": "PartitionedCall/model_19/tf.math.add_45/Add", "op": "_FusedConv2D", "input": ["PartitionedCall/model_19/tf.math.multiply_143/Mul", "15236", "15238"], "device": "/device:CPU:0", "attr": {"num_host_args": {"i": "0"}, "dilations": {"list": {"i": ["1", "1", "1", "1"]}}, "T": {"type": "DT_FLOAT"}, "padding": {"s": "U0FNRQ=="}, "TArgs": {"list": {"type": ["DT_FLOAT"]}}, "data_format": {"s": "TkhXQw=="}, "fused_ops": {"list": {"s": ["Qmlhc0FkZA=="]}}, "explicit_paddings": {"list": {}}, "strides": {"list": {"i": ["1", "1", "1", "1"]}}, "epsilon": {"f": 0.0}, "leakyrelu_alpha": {"f": 0.2}, "use_cudnn_on_gpu": {"b": true}, "filter_format": {"s": "SFdJTw=="}, "num_args": {"i": "1"}}}, {"name": "PartitionedCall/model_19/tf.math.sigmoid_33/Sigmoid", "op": "Sigmoid", "input": ["PartitionedCall/model_19/tf.math.add_45/Add"], "attr": {"T": {"type": "DT_FLOAT"}}}, {"name": "PartitionedCall/model_19/tf.math.multiply_147/Mul", "op": "Mul", "input": ["PartitionedCall/model_19/tf.math.add_45/Add", "PartitionedCall/model_19/tf.math.sigmoid_33/Sigmoid"], "attr": {"T": {"type": "DT_FLOAT"}}}, {"name": "PartitionedCall/model_19/tf.concat_8/concat", "op": "ConcatV2", "input": ["PartitionedCall/model_19/tf.strided_slice_10/StridedSlice", "PartitionedCall/model_19/tf.strided_slice_11/StridedSlice", "PartitionedCall/model_19/tf.math.multiply_147/Mul", "PartitionedCall/model_19/tf.concat_8/concat/axis"], "attr": {"N": {"i": "3"}, "Tidx": {"type": "DT_INT32"}, "T": {"type": "DT_FLOAT"}}}, {"name": "PartitionedCall/model_19/tf.math.add_46/Add", "op": "_FusedConv2D", "input": ["PartitionedCall/model_19/tf.concat_8/concat", "15244", "15246"], "device": "/device:CPU:0", "attr": {"padding": {"s": "U0FNRQ=="}, "strides": {"list": {"i": ["1", "1", "1", "1"]}}, "fused_ops": {"list": {"s": ["Qmlhc0FkZA=="]}}, "data_format": {"s": "TkhXQw=="}, "use_cudnn_on_gpu": {"b": true}, "leakyrelu_alpha": {"f": 0.2}, "num_host_args": {"i": "0"}, "explicit_paddings": {"list": {}}, "epsilon": {"f": 0.0}, "T": {"type": "DT_FLOAT"}, "dilations": {"list": {"i": ["1", "1", "1", "1"]}}, "TArgs": {"list": {"type": ["DT_FLOAT"]}}, "filter_format": {"s": "SFdJTw=="}, "num_args": {"i": "1"}}}, {"name": "PartitionedCall/model_19/tf.math.sigmoid_34/Sigmoid", "op": "Sigmoid", "input": ["PartitionedCall/model_19/tf.math.add_46/Add"], "attr": {"T": {"type": "DT_FLOAT"}}}, {"name": "PartitionedCall/model_19/tf.math.multiply_151/Mul", "op": "Mul", "input": ["PartitionedCall/model_19/tf.math.add_46/Add", "PartitionedCall/model_19/tf.math.sigmoid_34/Sigmoid"], "attr": {"T": {"type": "DT_FLOAT"}}}, {"name": "PartitionedCall/model_19/tf.math.add_50/Add", "op": "_FusedConv2D", "input": ["PartitionedCall/model_19/tf.math.multiply_151/Mul", "15318", "15330"], "device": "/device:CPU:0", "attr": {"fused_ops": {"list": {"s": ["Qmlhc0FkZA=="]}}, "data_format": {"s": "TkhXQw=="}, "dilations": {"list": {"i": ["1", "1", "1", "1"]}}, "num_host_args": {"i": "0"}, "padding": {"s": "U0FNRQ=="}, "T": {"type": "DT_FLOAT"}, "num_args": {"i": "1"}, "use_cudnn_on_gpu": {"b": true}, "TArgs": {"list": {"type": ["DT_FLOAT"]}}, "epsilon": {"f": 0.0}, "leakyrelu_alpha": {"f": 0.2}, "strides": {"list": {"i": ["1", "1", "1", "1"]}}, "filter_format": {"s": "SFdJTw=="}, "explicit_paddings": {"list": {}}}}, {"name": "PartitionedCall/model_19/tf.math.add_51/Add", "op": "_FusedConv2D", "input": ["PartitionedCall/model_19/tf.math.multiply_151/Mul", "15316", "15328"], "device": "/device:CPU:0", "attr": {"padding": {"s": "U0FNRQ=="}, "leakyrelu_alpha": {"f": 0.2}, "num_args": {"i": "1"}, "data_format": {"s": "TkhXQw=="}, "TArgs": {"list": {"type": ["DT_FLOAT"]}}, "strides": {"list": {"i": ["1", "1", "1", "1"]}}, "use_cudnn_on_gpu": {"b": true}, "fused_ops": {"list": {"s": ["Qmlhc0FkZA=="]}}, "T": {"type": "DT_FLOAT"}, "filter_format": {"s": "SFdJTw=="}, "explicit_paddings": {"list": {}}, "dilations": {"list": {"i": ["1", "1", "1", "1"]}}, "epsilon": {"f": 0.0}, "num_host_args": {"i": "0"}}}, {"name": "PartitionedCall/model_19/tf.math.add_49/Add", "op": "_FusedConv2D", "input": ["PartitionedCall/model_19/tf.math.multiply_151/Mul", "15390", "15398"], "device": "/device:CPU:0", "attr": {"dilations": {"list": {"i": ["1", "1", "1", "1"]}}, "explicit_paddings": {"list": {}}, "num_args": {"i": "1"}, "data_format": {"s": "TkhXQw=="}, "num_host_args": {"i": "0"}, "leakyrelu_alpha": {"f": 0.2}, "T": {"type": "DT_FLOAT"}, "epsilon": {"f": 0.0}, "strides": {"list": {"i": ["1", "1", "1", "1"]}}, "padding": {"s": "U0FNRQ=="}, "fused_ops": {"list": {"s": ["Qmlhc0FkZA=="]}}, "filter_format": {"s": "SFdJTw=="}, "use_cudnn_on_gpu": {"b": true}, "TArgs": {"list": {"type": ["DT_FLOAT"]}}}}, {"name": "PartitionedCall/model_19/tf.compat.v1.pad_5/Pad", "op": "Pad", "input": ["PartitionedCall/model_19/tf.math.multiply_151/Mul", "15248"], "attr": {"T": {"type": "DT_FLOAT"}, "Tpaddings": {"type": "DT_INT32"}}}, {"name": "PartitionedCall/model_19/tf.math.add_48/Add", "op": "_FusedConv2D", "input": ["PartitionedCall/model_19/tf.math.multiply_151/Mul", "15384", "15392"], "device": "/device:CPU:0", "attr": {"T": {"type": "DT_FLOAT"}, "data_format": {"s": "TkhXQw=="}, "explicit_paddings": {"list": {}}, "padding": {"s": "U0FNRQ=="}, "num_args": {"i": "1"}, "TArgs": {"list": {"type": ["DT_FLOAT"]}}, "epsilon": {"f": 0.0}, "leakyrelu_alpha": {"f": 0.2}, "use_cudnn_on_gpu": {"b": true}, "num_host_args": {"i": "0"}, "dilations": {"list": {"i": ["1", "1", "1", "1"]}}, "fused_ops": {"list": {"s": ["Qmlhc0FkZA=="]}}, "filter_format": {"s": "SFdJTw=="}, "strides": {"list": {"i": ["1", "1", "1", "1"]}}}}, {"name": "PartitionedCall/model_19/tf.math.sigmoid_38/Sigmoid", "op": "Sigmoid", "input": ["PartitionedCall/model_19/tf.math.add_50/Add"], "attr": {"T": {"type": "DT_FLOAT"}}}, {"name": "PartitionedCall/model_19/tf.math.sigmoid_39/Sigmoid", "op": "Sigmoid", "input": ["PartitionedCall/model_19/tf.math.add_51/Add"], "attr": {"T": {"type": "DT_FLOAT"}}}, {"name": "PartitionedCall/model_19/tf.math.sigmoid_37/Sigmoid", "op": "Sigmoid", "input": ["PartitionedCall/model_19/tf.math.add_49/Add"], "attr": {"T": {"type": "DT_FLOAT"}}}, {"name": "PartitionedCall/model_19/tf.math.add_47/Add", "op": "_FusedConv2D", "input": ["PartitionedCall/model_19/tf.compat.v1.pad_5/Pad", "15250", "15252"], "device": "/device:CPU:0", "attr": {"T": {"type": "DT_FLOAT"}, "data_format": {"s": "TkhXQw=="}, "leakyrelu_alpha": {"f": 0.2}, "padding": {"s": "VkFMSUQ="}, "fused_ops": {"list": {"s": ["Qmlhc0FkZA=="]}}, "filter_format": {"s": "SFdJTw=="}, "strides": {"list": {"i": ["1", "2", "2", "1"]}}, "TArgs": {"list": {"type": ["DT_FLOAT"]}}, "explicit_paddings": {"list": {}}, "num_host_args": {"i": "0"}, "num_args": {"i": "1"}, "epsilon": {"f": 0.0}, "dilations": {"list": {"i": ["1", "1", "1", "1"]}}, "use_cudnn_on_gpu": {"b": true}}}, {"name": "PartitionedCall/model_19/tf.math.sigmoid_36/Sigmoid", "op": "Sigmoid", "input": ["PartitionedCall/model_19/tf.math.add_48/Add"], "attr": {"T": {"type": "DT_FLOAT"}}}, {"name": "PartitionedCall/model_19/tf.math.multiply_167/Mul", "op": "Mul", "input": ["PartitionedCall/model_19/tf.math.add_50/Add", "PartitionedCall/model_19/tf.math.sigmoid_38/Sigmoid"], "attr": {"T": {"type": "DT_FLOAT"}}}, {"name": "PartitionedCall/model_19/tf.math.multiply_171/Mul", "op": "Mul", "input": ["PartitionedCall/model_19/tf.math.add_51/Add", "PartitionedCall/model_19/tf.math.sigmoid_39/Sigmoid"], "attr": {"T": {"type": "DT_FLOAT"}}}, {"name": "PartitionedCall/model_19/tf.math.multiply_163/Mul", "op": "Mul", "input": ["PartitionedCall/model_19/tf.math.add_49/Add", "PartitionedCall/model_19/tf.math.sigmoid_37/Sigmoid"], "attr": {"T": {"type": "DT_FLOAT"}}}, {"name": "PartitionedCall/model_19/tf.math.sigmoid_35/Sigmoid", "op": "Sigmoid", "input": ["PartitionedCall/model_19/tf.math.add_47/Add"], "attr": {"T": {"type": "DT_FLOAT"}}}, {"name": "PartitionedCall/model_19/tf.math.multiply_159/Mul", "op": "Mul", "input": ["PartitionedCall/model_19/tf.math.add_48/Add", "PartitionedCall/model_19/tf.math.sigmoid_36/Sigmoid"], "attr": {"T": {"type": "DT_FLOAT"}}}, {"name": "PartitionedCall/model_19/tf.math.add_54/Add", "op": "_FusedConv2D", "input": ["PartitionedCall/model_19/tf.math.multiply_167/Mul", "15342", "15354"], "device": "/device:CPU:0", "attr": {"num_args": {"i": "1"}, "dilations": {"list": {"i": ["1", "1", "1", "1"]}}, "num_host_args": {"i": "0"}, "TArgs": {"list": {"type": ["DT_FLOAT"]}}, "padding": {"s": "U0FNRQ=="}, "use_cudnn_on_gpu": {"b": true}, "data_format": {"s": "TkhXQw=="}, "epsilon": {"f": 0.0}, "fused_ops": {"list": {"s": ["Qmlhc0FkZA=="]}}, "filter_format": {"s": "SFdJTw=="}, "T": {"type": "DT_FLOAT"}, "leakyrelu_alpha": {"f": 0.2}, "strides": {"list": {"i": ["1", "1", "1", "1"]}}, "explicit_paddings": {"list": {}}}}, {"name": "PartitionedCall/model_19/tf.math.add_55/Add", "op": "_FusedConv2D", "input": ["PartitionedCall/model_19/tf.math.multiply_171/Mul", "15340", "15352"], "device": "/device:CPU:0", "attr": {"leakyrelu_alpha": {"f": 0.2}, "num_host_args": {"i": "0"}, "data_format": {"s": "TkhXQw=="}, "TArgs": {"list": {"type": ["DT_FLOAT"]}}, "epsilon": {"f": 0.0}, "explicit_paddings": {"list": {}}, "fused_ops": {"list": {"s": ["Qmlhc0FkZA=="]}}, "filter_format": {"s": "SFdJTw=="}, "padding": {"s": "U0FNRQ=="}, "dilations": {"list": {"i": ["1", "1", "1", "1"]}}, "num_args": {"i": "1"}, "strides": {"list": {"i": ["1", "1", "1", "1"]}}, "T": {"type": "DT_FLOAT"}, "use_cudnn_on_gpu": {"b": true}}}, {"name": "PartitionedCall/model_19/tf.math.add_53/Add", "op": "_FusedConv2D", "input": ["PartitionedCall/model_19/tf.math.multiply_163/Mul", "15406", "15414"], "device": "/device:CPU:0", "attr": {"leakyrelu_alpha": {"f": 0.2}, "data_format": {"s": "TkhXQw=="}, "TArgs": {"list": {"type": ["DT_FLOAT"]}}, "explicit_paddings": {"list": {}}, "strides": {"list": {"i": ["1", "1", "1", "1"]}}, "num_host_args": {"i": "0"}, "dilations": {"list": {"i": ["1", "1", "1", "1"]}}, "T": {"type": "DT_FLOAT"}, "use_cudnn_on_gpu": {"b": true}, "fused_ops": {"list": {"s": ["Qmlhc0FkZA=="]}}, "padding": {"s": "U0FNRQ=="}, "filter_format": {"s": "SFdJTw=="}, "epsilon": {"f": 0.0}, "num_args": {"i": "1"}}}, {"name": "PartitionedCall/model_19/tf.math.multiply_155/Mul", "op": "Mul", "input": ["PartitionedCall/model_19/tf.math.add_47/Add", "PartitionedCall/model_19/tf.math.sigmoid_35/Sigmoid"], "attr": {"T": {"type": "DT_FLOAT"}}}, {"name": "PartitionedCall/model_19/tf.nn.conv2d_transpose/conv2d_transpose", "op": "Conv2DBackpropInput", "input": ["PartitionedCall/model_19/tf.nn.conv2d_transpose/conv2d_transpose/input_sizes", "15400", "PartitionedCall/model_19/tf.math.multiply_159/Mul"], "attr": {"use_cudnn_on_gpu": {"b": true}, "T": {"type": "DT_FLOAT"}, "explicit_paddings": {"list": {}}, "strides": {"list": {"i": ["1", "2", "2", "1"]}}, "data_format": {"s": "TkhXQw=="}, "padding": {"s": "VkFMSUQ="}, "dilations": {"list": {"i": ["1", "1", "1", "1"]}}}}, {"name": "PartitionedCall/model_19/tf.math.sigmoid_41/Sigmoid", "op": "Sigmoid", "input": ["PartitionedCall/model_19/tf.math.add_54/Add"], "attr": {"T": {"type": "DT_FLOAT"}}}, {"name": "PartitionedCall/model_19/tf.math.sigmoid_42/Sigmoid", "op": "Sigmoid", "input": ["PartitionedCall/model_19/tf.math.add_55/Add"], "attr": {"T": {"type": "DT_FLOAT"}}}, {"name": "PartitionedCall/model_19/tf.math.sigmoid_40/Sigmoid", "op": "Sigmoid", "input": ["PartitionedCall/model_19/tf.math.add_53/Add"], "attr": {"T": {"type": "DT_FLOAT"}}}, {"name": "PartitionedCall/model_19/tf.concat_9/concat", "op": "ConcatV2", "input": ["PartitionedCall/model_19/tf.math.multiply_155/Mul", "PartitionedCall/model_19/tf.math.multiply_135/Mul", "PartitionedCall/model_19/tf.concat_9/concat/axis"], "attr": {"N": {"i": "2"}, "T": {"type": "DT_FLOAT"}, "Tidx": {"type": "DT_INT32"}}}, {"name": "PartitionedCall/model_19/tf.math.add_52/Add", "op": "AddV2", "input": ["PartitionedCall/model_19/tf.nn.conv2d_transpose/conv2d_transpose", "PartitionedCall/model_19/tf.math.add_52/Add/y"], "attr": {"T": {"type": "DT_FLOAT"}}}, {"name": "PartitionedCall/model_19/tf.math.multiply_179/Mul", "op": "Mul", "input": ["PartitionedCall/model_19/tf.math.add_54/Add", "PartitionedCall/model_19/tf.math.sigmoid_41/Sigmoid"], "attr": {"T": {"type": "DT_FLOAT"}}}, {"name": "PartitionedCall/model_19/tf.math.multiply_183/Mul", "op": "Mul", "input": ["PartitionedCall/model_19/tf.math.add_55/Add", "PartitionedCall/model_19/tf.math.sigmoid_42/Sigmoid"], "attr": {"T": {"type": "DT_FLOAT"}}}, {"name": "PartitionedCall/model_19/tf.math.multiply_175/Mul", "op": "Mul", "input": ["PartitionedCall/model_19/tf.math.add_53/Add", "PartitionedCall/model_19/tf.math.sigmoid_40/Sigmoid"], "attr": {"T": {"type": "DT_FLOAT"}}}, {"name": "PartitionedCall/model_19/tf.math.add_56/Add", "op": "_FusedConv2D", "input": ["PartitionedCall/model_19/tf.concat_9/concat", "15254", "15256"], "device": "/device:CPU:0", "attr": {"epsilon": {"f": 0.0}, "data_format": {"s": "TkhXQw=="}, "num_host_args": {"i": "0"}, "fused_ops": {"list": {"s": ["Qmlhc0FkZA=="]}}, "use_cudnn_on_gpu": {"b": true}, "dilations": {"list": {"i": ["1", "1", "1", "1"]}}, "filter_format": {"s": "SFdJTw=="}, "padding": {"s": "U0FNRQ=="}, "TArgs": {"list": {"type": ["DT_FLOAT"]}}, "leakyrelu_alpha": {"f": 0.2}, "T": {"type": "DT_FLOAT"}, "explicit_paddings": {"list": {}}, "strides": {"list": {"i": ["1", "1", "1", "1"]}}, "num_args": {"i": "1"}}}, {"name": "PartitionedCall/model_19/tf.math.add_57/Add", "op": "_FusedConv2D", "input": ["PartitionedCall/model_19/tf.math.add_52/Add", "15416", "15418"], "device": "/device:CPU:0", "attr": {"epsilon": {"f": 0.0}, "num_host_args": {"i": "0"}, "leakyrelu_alpha": {"f": 0.2}, "dilations": {"list": {"i": ["1", "1", "1", "1"]}}, "padding": {"s": "U0FNRQ=="}, "explicit_paddings": {"list": {}}, "T": {"type": "DT_FLOAT"}, "strides": {"list": {"i": ["1", "1", "1", "1"]}}, "use_cudnn_on_gpu": {"b": true}, "data_format": {"s": "TkhXQw=="}, "num_args": {"i": "1"}, "TArgs": {"list": {"type": ["DT_FLOAT"]}}, "fused_ops": {"list": {"s": ["Qmlhc0FkZA=="]}}, "filter_format": {"s": "SFdJTw=="}}}, {"name": "PartitionedCall/model_19/tf.math.add_59/Add", "op": "_FusedConv2D", "input": ["PartitionedCall/model_19/tf.math.multiply_179/Mul", "15366", "15376"], "device": "/device:CPU:0", "attr": {"dilations": {"list": {"i": ["1", "1", "1", "1"]}}, "T": {"type": "DT_FLOAT"}, "num_args": {"i": "1"}, "leakyrelu_alpha": {"f": 0.2}, "num_host_args": {"i": "0"}, "use_cudnn_on_gpu": {"b": true}, "TArgs": {"list": {"type": ["DT_FLOAT"]}}, "epsilon": {"f": 0.0}, "fused_ops": {"list": {"s": ["Qmlhc0FkZA=="]}}, "data_format": {"s": "TkhXQw=="}, "explicit_paddings": {"list": {}}, "strides": {"list": {"i": ["1", "1", "1", "1"]}}, "filter_format": {"s": "SFdJTw=="}, "padding": {"s": "U0FNRQ=="}}}, {"name": "PartitionedCall/model_19/tf.math.add_60/Add", "op": "_FusedConv2D", "input": ["PartitionedCall/model_19/tf.math.multiply_183/Mul", "15364", "15378"], "device": "/device:CPU:0", "attr": {"leakyrelu_alpha": {"f": 0.2}, "filter_format": {"s": "SFdJTw=="}, "T": {"type": "DT_FLOAT"}, "fused_ops": {"list": {"s": ["Qmlhc0FkZA=="]}}, "epsilon": {"f": 0.0}, "data_format": {"s": "TkhXQw=="}, "dilations": {"list": {"i": ["1", "1", "1", "1"]}}, "strides": {"list": {"i": ["1", "1", "1", "1"]}}, "explicit_paddings": {"list": {}}, "padding": {"s": "U0FNRQ=="}, "use_cudnn_on_gpu": {"b": true}, "TArgs": {"list": {"type": ["DT_FLOAT"]}}, "num_host_args": {"i": "0"}, "num_args": {"i": "1"}}}, {"name": "PartitionedCall/model_19/tf.math.add_58/Add", "op": "_FusedConv2D", "input": ["PartitionedCall/model_19/tf.math.multiply_175/Mul", "15432", "15442"], "device": "/device:CPU:0", "attr": {"padding": {"s": "U0FNRQ=="}, "TArgs": {"list": {"type": ["DT_FLOAT"]}}, "fused_ops": {"list": {"s": ["Qmlhc0FkZA=="]}}, "num_host_args": {"i": "0"}, "dilations": {"list": {"i": ["1", "1", "1", "1"]}}, "num_args": {"i": "1"}, "data_format": {"s": "TkhXQw=="}, "T": {"type": "DT_FLOAT"}, "strides": {"list": {"i": ["1", "1", "1", "1"]}}, "use_cudnn_on_gpu": {"b": true}, "leakyrelu_alpha": {"f": 0.2}, "epsilon": {"f": 0.0}, "explicit_paddings": {"list": {}}, "filter_format": {"s": "SFdJTw=="}}}, {"name": "PartitionedCall/model_19/tf.math.sigmoid_43/Sigmoid", "op": "Sigmoid", "input": ["PartitionedCall/model_19/tf.math.add_56/Add"], "attr": {"T": {"type": "DT_FLOAT"}}}, {"name": "PartitionedCall/model_19/tf.math.sigmoid_44/Sigmoid", "op": "Sigmoid", "input": ["PartitionedCall/model_19/tf.math.add_57/Add"], "attr": {"T": {"type": "DT_FLOAT"}}}, {"name": "PartitionedCall/model_19/tf.concat_10/concat", "op": "ConcatV2", "input": ["PartitionedCall/model_19/tf.math.add_59/Add", "PartitionedCall/model_19/tf.math.add_60/Add", "PartitionedCall/model_19/tf.concat_10/concat/axis"], "attr": {"N": {"i": "2"}, "T": {"type": "DT_FLOAT"}, "Tidx": {"type": "DT_INT32"}}}, {"name": "PartitionedCall/model_19/tf.compat.v1.transpose_2/transpose", "op": "Transpose", "input": ["PartitionedCall/model_19/tf.math.add_58/Add", "PartitionedCall/model_19/tf.compat.v1.transpose_2/transpose/perm"], "attr": {"T": {"type": "DT_FLOAT"}, "Tperm": {"type": "DT_INT32"}}}, {"name": "PartitionedCall/model_19/tf.math.multiply_187/Mul", "op": "Mul", "input": ["PartitionedCall/model_19/tf.math.add_56/Add", "PartitionedCall/model_19/tf.math.sigmoid_43/Sigmoid"], "attr": {"T": {"type": "DT_FLOAT"}}}, {"name": "PartitionedCall/model_19/tf.math.multiply_191/Mul", "op": "Mul", "input": ["PartitionedCall/model_19/tf.math.add_57/Add", "PartitionedCall/model_19/tf.math.sigmoid_44/Sigmoid"], "attr": {"T": {"type": "DT_FLOAT"}}}, {"name": "PartitionedCall/model_19/tf.compat.v1.transpose_7/transpose", "op": "Transpose", "input": ["PartitionedCall/model_19/tf.concat_10/concat", "PartitionedCall/model_19/tf.compat.v1.transpose_7/transpose/perm"], "attr": {"Tperm": {"type": "DT_INT32"}, "T": {"type": "DT_FLOAT"}}}, {"name": "PartitionedCall/model_19/tf.reshape_2/Reshape", "op": "Reshape", "input": ["PartitionedCall/model_19/tf.compat.v1.transpose_2/transpose", "PartitionedCall/model_19/tf.reshape_2/Reshape/shape"], "attr": {"Tshape": {"type": "DT_INT32"}, "T": {"type": "DT_FLOAT"}}}, {"name": "PartitionedCall/model_19/tf.strided_slice_12/StridedSlice", "op": "StridedSlice", "input": ["PartitionedCall/model_19/tf.math.multiply_187/Mul", "15270", "15272", "PartitionedCall/model_19/tf.strided_slice_12/ones_like"], "attr": {"Index": {"type": "DT_INT64"}, "ellipsis_mask": {"i": "0"}, "shrink_axis_mask": {"i": "0"}, "T": {"type": "DT_FLOAT"}, "end_mask": {"i": "7"}, "new_axis_mask": {"i": "0"}, "begin_mask": {"i": "15"}}}, {"name": "PartitionedCall/model_19/tf.strided_slice_13/StridedSlice", "op": "StridedSlice", "input": ["PartitionedCall/model_19/tf.math.multiply_187/Mul", "15258", "15260", "PartitionedCall/model_19/tf.strided_slice_13/ones_like"], "attr": {"shrink_axis_mask": {"i": "0"}, "T": {"type": "DT_FLOAT"}, "new_axis_mask": {"i": "0"}, "end_mask": {"i": "7"}, "Index": {"type": "DT_INT64"}, "ellipsis_mask": {"i": "0"}, "begin_mask": {"i": "7"}}}, {"name": "PartitionedCall/model_19/tf.math.add_61/Add", "op": "_FusedConv2D", "input": ["PartitionedCall/model_19/tf.math.multiply_191/Mul", "15444", "15448"], "device": "/device:CPU:0", "attr": {"use_cudnn_on_gpu": {"b": true}, "data_format": {"s": "TkhXQw=="}, "num_host_args": {"i": "0"}, "num_args": {"i": "1"}, "epsilon": {"f": 0.0}, "TArgs": {"list": {"type": ["DT_FLOAT"]}}, "explicit_paddings": {"list": {}}, "strides": {"list": {"i": ["1", "1", "1", "1"]}}, "fused_ops": {"list": {"s": ["Qmlhc0FkZA=="]}}, "padding": {"s": "U0FNRQ=="}, "T": {"type": "DT_FLOAT"}, "leakyrelu_alpha": {"f": 0.2}, "dilations": {"list": {"i": ["1", "1", "1", "1"]}}, "filter_format": {"s": "SFdJTw=="}}}, {"name": "PartitionedCall/model_19/tf.reshape_5/Reshape", "op": "Reshape", "input": ["PartitionedCall/model_19/tf.compat.v1.transpose_7/transpose", "PartitionedCall/model_19/tf.reshape_5/Reshape/shape"], "attr": {"T": {"type": "DT_FLOAT"}, "Tshape": {"type": "DT_INT32"}}}, {"name": "PartitionedCall/model_19/tf.math.add_62/Add", "op": "_FusedConv2D", "input": ["PartitionedCall/model_19/tf.strided_slice_13/StridedSlice", "15262", "15264"], "device": "/device:CPU:0", "attr": {"T": {"type": "DT_FLOAT"}, "strides": {"list": {"i": ["1", "1", "1", "1"]}}, "dilations": {"list": {"i": ["1", "1", "1", "1"]}}, "explicit_paddings": {"list": {}}, "fused_ops": {"list": {"s": ["Qmlhc0FkZA=="]}}, "leakyrelu_alpha": {"f": 0.2}, "epsilon": {"f": 0.0}, "data_format": {"s": "TkhXQw=="}, "use_cudnn_on_gpu": {"b": true}, "filter_format": {"s": "SFdJTw=="}, "num_host_args": {"i": "0"}, "TArgs": {"list": {"type": ["DT_FLOAT"]}}, "num_args": {"i": "1"}, "padding": {"s": "U0FNRQ=="}}}, {"name": "PartitionedCall/model_19/tf.math.sigmoid_45/Sigmoid", "op": "Sigmoid", "input": ["PartitionedCall/model_19/tf.math.add_61/Add"], "attr": {"T": {"type": "DT_FLOAT"}}}, {"name": "PartitionedCall/model_19/tf.math.sigmoid_46/Sigmoid", "op": "Sigmoid", "input": ["PartitionedCall/model_19/tf.math.add_62/Add"], "attr": {"T": {"type": "DT_FLOAT"}}}, {"name": "PartitionedCall/model_19/output1/Mul", "op": "Mul", "input": ["PartitionedCall/model_19/tf.math.add_61/Add", "PartitionedCall/model_19/tf.math.sigmoid_45/Sigmoid"], "attr": {"T": {"type": "DT_FLOAT"}}}, {"name": "PartitionedCall/model_19/tf.math.multiply_199/Mul", "op": "Mul", "input": ["PartitionedCall/model_19/tf.math.add_62/Add", "PartitionedCall/model_19/tf.math.sigmoid_46/Sigmoid"], "attr": {"T": {"type": "DT_FLOAT"}}}, {"name": "Identity_1", "op": "Identity", "input": ["PartitionedCall/model_19/output1/Mul"], "attr": {"T": {"type": "DT_FLOAT"}}}, {"name": "PartitionedCall/model_19/tf.math.add_63/Add", "op": "_FusedConv2D", "input": ["PartitionedCall/model_19/tf.math.multiply_199/Mul", "15266", "15268"], "device": "/device:CPU:0", "attr": {"num_host_args": {"i": "0"}, "explicit_paddings": {"list": {}}, "filter_format": {"s": "SFdJTw=="}, "use_cudnn_on_gpu": {"b": true}, "fused_ops": {"list": {"s": ["Qmlhc0FkZA=="]}}, "strides": {"list": {"i": ["1", "1", "1", "1"]}}, "dilations": {"list": {"i": ["1", "1", "1", "1"]}}, "T": {"type": "DT_FLOAT"}, "epsilon": {"f": 0.0}, "TArgs": {"list": {"type": ["DT_FLOAT"]}}, "leakyrelu_alpha": {"f": 0.2}, "num_args": {"i": "1"}, "data_format": {"s": "TkhXQw=="}, "padding": {"s": "U0FNRQ=="}}}, {"name": "PartitionedCall/model_19/tf.math.sigmoid_47/Sigmoid", "op": "Sigmoid", "input": ["PartitionedCall/model_19/tf.math.add_63/Add"], "attr": {"T": {"type": "DT_FLOAT"}}}, {"name": "PartitionedCall/model_19/tf.math.multiply_203/Mul", "op": "Mul", "input": ["PartitionedCall/model_19/tf.math.add_63/Add", "PartitionedCall/model_19/tf.math.sigmoid_47/Sigmoid"], "attr": {"T": {"type": "DT_FLOAT"}}}, {"name": "PartitionedCall/model_19/tf.concat_11/concat", "op": "ConcatV2", "input": ["PartitionedCall/model_19/tf.strided_slice_12/StridedSlice", "PartitionedCall/model_19/tf.strided_slice_13/StridedSlice", "PartitionedCall/model_19/tf.math.multiply_203/Mul", "PartitionedCall/model_19/tf.concat_11/concat/axis"], "attr": {"N": {"i": "3"}, "T": {"type": "DT_FLOAT"}, "Tidx": {"type": "DT_INT32"}}}, {"name": "PartitionedCall/model_19/tf.math.add_64/Add", "op": "_FusedConv2D", "input": ["PartitionedCall/model_19/tf.concat_11/concat", "15274", "15276"], "device": "/device:CPU:0", "attr": {"filter_format": {"s": "SFdJTw=="}, "use_cudnn_on_gpu": {"b": true}, "num_args": {"i": "1"}, "num_host_args": {"i": "0"}, "T": {"type": "DT_FLOAT"}, "epsilon": {"f": 0.0}, "TArgs": {"list": {"type": ["DT_FLOAT"]}}, "data_format": {"s": "TkhXQw=="}, "explicit_paddings": {"list": {}}, "fused_ops": {"list": {"s": ["Qmlhc0FkZA=="]}}, "strides": {"list": {"i": ["1", "1", "1", "1"]}}, "leakyrelu_alpha": {"f": 0.2}, "padding": {"s": "U0FNRQ=="}, "dilations": {"list": {"i": ["1", "1", "1", "1"]}}}}, {"name": "PartitionedCall/model_19/tf.math.sigmoid_48/Sigmoid", "op": "Sigmoid", "input": ["PartitionedCall/model_19/tf.math.add_64/Add"], "attr": {"T": {"type": "DT_FLOAT"}}}, {"name": "PartitionedCall/model_19/tf.math.multiply_207/Mul", "op": "Mul", "input": ["PartitionedCall/model_19/tf.math.add_64/Add", "PartitionedCall/model_19/tf.math.sigmoid_48/Sigmoid"], "attr": {"T": {"type": "DT_FLOAT"}}}, {"name": "PartitionedCall/model_19/tf.math.add_67/Add", "op": "_FusedConv2D", "input": ["PartitionedCall/model_19/tf.math.multiply_207/Mul", "15314", "15326"], "device": "/device:CPU:0", "attr": {"padding": {"s": "U0FNRQ=="}, "leakyrelu_alpha": {"f": 0.2}, "fused_ops": {"list": {"s": ["Qmlhc0FkZA=="]}}, "explicit_paddings": {"list": {}}, "T": {"type": "DT_FLOAT"}, "strides": {"list": {"i": ["1", "1", "1", "1"]}}, "epsilon": {"f": 0.0}, "num_host_args": {"i": "0"}, "filter_format": {"s": "SFdJTw=="}, "data_format": {"s": "TkhXQw=="}, "TArgs": {"list": {"type": ["DT_FLOAT"]}}, "num_args": {"i": "1"}, "dilations": {"list": {"i": ["1", "1", "1", "1"]}}, "use_cudnn_on_gpu": {"b": true}}}, {"name": "PartitionedCall/model_19/tf.math.add_68/Add", "op": "_FusedConv2D", "input": ["PartitionedCall/model_19/tf.math.multiply_207/Mul", "15312", "15324"], "device": "/device:CPU:0", "attr": {"use_cudnn_on_gpu": {"b": true}, "fused_ops": {"list": {"s": ["Qmlhc0FkZA=="]}}, "data_format": {"s": "TkhXQw=="}, "padding": {"s": "U0FNRQ=="}, "leakyrelu_alpha": {"f": 0.2}, "dilations": {"list": {"i": ["1", "1", "1", "1"]}}, "num_host_args": {"i": "0"}, "strides": {"list": {"i": ["1", "1", "1", "1"]}}, "num_args": {"i": "1"}, "T": {"type": "DT_FLOAT"}, "epsilon": {"f": 0.0}, "TArgs": {"list": {"type": ["DT_FLOAT"]}}, "filter_format": {"s": "SFdJTw=="}, "explicit_paddings": {"list": {}}}}, {"name": "PartitionedCall/model_19/tf.math.add_66/Add", "op": "_FusedConv2D", "input": ["PartitionedCall/model_19/tf.math.multiply_207/Mul", "15388", "15396"], "device": "/device:CPU:0", "attr": {"padding": {"s": "U0FNRQ=="}, "dilations": {"list": {"i": ["1", "1", "1", "1"]}}, "num_args": {"i": "1"}, "fused_ops": {"list": {"s": ["Qmlhc0FkZA=="]}}, "explicit_paddings": {"list": {}}, "use_cudnn_on_gpu": {"b": true}, "data_format": {"s": "TkhXQw=="}, "epsilon": {"f": 0.0}, "TArgs": {"list": {"type": ["DT_FLOAT"]}}, "filter_format": {"s": "SFdJTw=="}, "T": {"type": "DT_FLOAT"}, "leakyrelu_alpha": {"f": 0.2}, "strides": {"list": {"i": ["1", "1", "1", "1"]}}, "num_host_args": {"i": "0"}}}, {"name": "PartitionedCall/model_19/tf.compat.v1.pad_6/Pad", "op": "Pad", "input": ["PartitionedCall/model_19/tf.math.multiply_207/Mul", "15278"], "attr": {"T": {"type": "DT_FLOAT"}, "Tpaddings": {"type": "DT_INT32"}}}, {"name": "PartitionedCall/model_19/tf.math.sigmoid_51/Sigmoid", "op": "Sigmoid", "input": ["PartitionedCall/model_19/tf.math.add_67/Add"], "attr": {"T": {"type": "DT_FLOAT"}}}, {"name": "PartitionedCall/model_19/tf.math.sigmoid_52/Sigmoid", "op": "Sigmoid", "input": ["PartitionedCall/model_19/tf.math.add_68/Add"], "attr": {"T": {"type": "DT_FLOAT"}}}, {"name": "PartitionedCall/model_19/tf.math.sigmoid_50/Sigmoid", "op": "Sigmoid", "input": ["PartitionedCall/model_19/tf.math.add_66/Add"], "attr": {"T": {"type": "DT_FLOAT"}}}, {"name": "PartitionedCall/model_19/tf.math.add_65/Add", "op": "_FusedConv2D", "input": ["PartitionedCall/model_19/tf.compat.v1.pad_6/Pad", "15280", "15282"], "device": "/device:CPU:0", "attr": {"dilations": {"list": {"i": ["1", "1", "1", "1"]}}, "leakyrelu_alpha": {"f": 0.2}, "data_format": {"s": "TkhXQw=="}, "strides": {"list": {"i": ["1", "2", "2", "1"]}}, "num_host_args": {"i": "0"}, "T": {"type": "DT_FLOAT"}, "explicit_paddings": {"list": {}}, "fused_ops": {"list": {"s": ["Qmlhc0FkZA=="]}}, "filter_format": {"s": "SFdJTw=="}, "padding": {"s": "VkFMSUQ="}, "use_cudnn_on_gpu": {"b": true}, "TArgs": {"list": {"type": ["DT_FLOAT"]}}, "epsilon": {"f": 0.0}, "num_args": {"i": "1"}}}, {"name": "PartitionedCall/model_19/tf.math.multiply_219/Mul", "op": "Mul", "input": ["PartitionedCall/model_19/tf.math.add_67/Add", "PartitionedCall/model_19/tf.math.sigmoid_51/Sigmoid"], "attr": {"T": {"type": "DT_FLOAT"}}}, {"name": "PartitionedCall/model_19/tf.math.multiply_223/Mul", "op": "Mul", "input": ["PartitionedCall/model_19/tf.math.add_68/Add", "PartitionedCall/model_19/tf.math.sigmoid_52/Sigmoid"], "attr": {"T": {"type": "DT_FLOAT"}}}, {"name": "PartitionedCall/model_19/tf.math.multiply_215/Mul", "op": "Mul", "input": ["PartitionedCall/model_19/tf.math.add_66/Add", "PartitionedCall/model_19/tf.math.sigmoid_50/Sigmoid"], "attr": {"T": {"type": "DT_FLOAT"}}}, {"name": "PartitionedCall/model_19/tf.math.sigmoid_49/Sigmoid", "op": "Sigmoid", "input": ["PartitionedCall/model_19/tf.math.add_65/Add"], "attr": {"T": {"type": "DT_FLOAT"}}}, {"name": "PartitionedCall/model_19/tf.math.add_70/Add", "op": "_FusedConv2D", "input": ["PartitionedCall/model_19/tf.math.multiply_219/Mul", "15338", "15350"], "device": "/device:CPU:0", "attr": {"padding": {"s": "U0FNRQ=="}, "TArgs": {"list": {"type": ["DT_FLOAT"]}}, "filter_format": {"s": "SFdJTw=="}, "dilations": {"list": {"i": ["1", "1", "1", "1"]}}, "leakyrelu_alpha": {"f": 0.2}, "fused_ops": {"list": {"s": ["Qmlhc0FkZA=="]}}, "epsilon": {"f": 0.0}, "strides": {"list": {"i": ["1", "1", "1", "1"]}}, "num_args": {"i": "1"}, "num_host_args": {"i": "0"}, "data_format": {"s": "TkhXQw=="}, "explicit_paddings": {"list": {}}, "use_cudnn_on_gpu": {"b": true}, "T": {"type": "DT_FLOAT"}}}, {"name": "PartitionedCall/model_19/tf.math.add_71/Add", "op": "_FusedConv2D", "input": ["PartitionedCall/model_19/tf.math.multiply_223/Mul", "15336", "15348"], "device": "/device:CPU:0", "attr": {"data_format": {"s": "TkhXQw=="}, "use_cudnn_on_gpu": {"b": true}, "padding": {"s": "U0FNRQ=="}, "explicit_paddings": {"list": {}}, "epsilon": {"f": 0.0}, "T": {"type": "DT_FLOAT"}, "filter_format": {"s": "SFdJTw=="}, "num_host_args": {"i": "0"}, "strides": {"list": {"i": ["1", "1", "1", "1"]}}, "leakyrelu_alpha": {"f": 0.2}, "num_args": {"i": "1"}, "TArgs": {"list": {"type": ["DT_FLOAT"]}}, "fused_ops": {"list": {"s": ["Qmlhc0FkZA=="]}}, "dilations": {"list": {"i": ["1", "1", "1", "1"]}}}}, {"name": "PartitionedCall/model_19/tf.math.add_69/Add", "op": "_FusedConv2D", "input": ["PartitionedCall/model_19/tf.math.multiply_215/Mul", "15404", "15412"], "device": "/device:CPU:0", "attr": {"T": {"type": "DT_FLOAT"}, "TArgs": {"list": {"type": ["DT_FLOAT"]}}, "data_format": {"s": "TkhXQw=="}, "epsilon": {"f": 0.0}, "padding": {"s": "U0FNRQ=="}, "num_host_args": {"i": "0"}, "dilations": {"list": {"i": ["1", "1", "1", "1"]}}, "use_cudnn_on_gpu": {"b": true}, "fused_ops": {"list": {"s": ["Qmlhc0FkZA=="]}}, "filter_format": {"s": "SFdJTw=="}, "num_args": {"i": "1"}, "explicit_paddings": {"list": {}}, "leakyrelu_alpha": {"f": 0.2}, "strides": {"list": {"i": ["1", "1", "1", "1"]}}}}, {"name": "PartitionedCall/model_19/tf.math.multiply_211/Mul", "op": "Mul", "input": ["PartitionedCall/model_19/tf.math.add_65/Add", "PartitionedCall/model_19/tf.math.sigmoid_49/Sigmoid"], "attr": {"T": {"type": "DT_FLOAT"}}}, {"name": "PartitionedCall/model_19/tf.math.sigmoid_54/Sigmoid", "op": "Sigmoid", "input": ["PartitionedCall/model_19/tf.math.add_70/Add"], "attr": {"T": {"type": "DT_FLOAT"}}}, {"name": "PartitionedCall/model_19/tf.math.sigmoid_55/Sigmoid", "op": "Sigmoid", "input": ["PartitionedCall/model_19/tf.math.add_71/Add"], "attr": {"T": {"type": "DT_FLOAT"}}}, {"name": "PartitionedCall/model_19/tf.math.sigmoid_53/Sigmoid", "op": "Sigmoid", "input": ["PartitionedCall/model_19/tf.math.add_69/Add"], "attr": {"T": {"type": "DT_FLOAT"}}}, {"name": "PartitionedCall/model_19/tf.concat_12/concat", "op": "ConcatV2", "input": ["PartitionedCall/model_19/tf.math.multiply_211/Mul", "PartitionedCall/model_19/tf.math.multiply_119/Mul", "PartitionedCall/model_19/tf.concat_12/concat/axis"], "attr": {"T": {"type": "DT_FLOAT"}, "N": {"i": "2"}, "Tidx": {"type": "DT_INT32"}}}, {"name": "PartitionedCall/model_19/tf.math.multiply_231/Mul", "op": "Mul", "input": ["PartitionedCall/model_19/tf.math.add_70/Add", "PartitionedCall/model_19/tf.math.sigmoid_54/Sigmoid"], "attr": {"T": {"type": "DT_FLOAT"}}}, {"name": "PartitionedCall/model_19/tf.math.multiply_235/Mul", "op": "Mul", "input": ["PartitionedCall/model_19/tf.math.add_71/Add", "PartitionedCall/model_19/tf.math.sigmoid_55/Sigmoid"], "attr": {"T": {"type": "DT_FLOAT"}}}, {"name": "PartitionedCall/model_19/tf.math.multiply_227/Mul", "op": "Mul", "input": ["PartitionedCall/model_19/tf.math.add_69/Add", "PartitionedCall/model_19/tf.math.sigmoid_53/Sigmoid"], "attr": {"T": {"type": "DT_FLOAT"}}}, {"name": "PartitionedCall/model_19/tf.math.add_72/Add", "op": "_FusedConv2D", "input": ["PartitionedCall/model_19/tf.concat_12/concat", "15284", "15286"], "device": "/device:CPU:0", "attr": {"dilations": {"list": {"i": ["1", "1", "1", "1"]}}, "explicit_paddings": {"list": {}}, "strides": {"list": {"i": ["1", "1", "1", "1"]}}, "leakyrelu_alpha": {"f": 0.2}, "T": {"type": "DT_FLOAT"}, "epsilon": {"f": 0.0}, "padding": {"s": "U0FNRQ=="}, "data_format": {"s": "TkhXQw=="}, "fused_ops": {"list": {"s": ["Qmlhc0FkZA=="]}}, "num_host_args": {"i": "0"}, "num_args": {"i": "1"}, "filter_format": {"s": "SFdJTw=="}, "use_cudnn_on_gpu": {"b": true}, "TArgs": {"list": {"type": ["DT_FLOAT"]}}}}, {"name": "PartitionedCall/model_19/tf.math.add_74/Add", "op": "_FusedConv2D", "input": ["PartitionedCall/model_19/tf.math.multiply_231/Mul", "15362", "15372"], "device": "/device:CPU:0", "attr": {"padding": {"s": "U0FNRQ=="}, "T": {"type": "DT_FLOAT"}, "dilations": {"list": {"i": ["1", "1", "1", "1"]}}, "num_args": {"i": "1"}, "use_cudnn_on_gpu": {"b": true}, "strides": {"list": {"i": ["1", "1", "1", "1"]}}, "num_host_args": {"i": "0"}, "fused_ops": {"list": {"s": ["Qmlhc0FkZA=="]}}, "leakyrelu_alpha": {"f": 0.2}, "filter_format": {"s": "SFdJTw=="}, "explicit_paddings": {"list": {}}, "TArgs": {"list": {"type": ["DT_FLOAT"]}}, "data_format": {"s": "TkhXQw=="}, "epsilon": {"f": 0.0}}}, {"name": "PartitionedCall/model_19/tf.math.add_75/Add", "op": "_FusedConv2D", "input": ["PartitionedCall/model_19/tf.math.multiply_235/Mul", "15360", "15374"], "device": "/device:CPU:0", "attr": {"use_cudnn_on_gpu": {"b": true}, "TArgs": {"list": {"type": ["DT_FLOAT"]}}, "leakyrelu_alpha": {"f": 0.2}, "padding": {"s": "U0FNRQ=="}, "num_args": {"i": "1"}, "strides": {"list": {"i": ["1", "1", "1", "1"]}}, "filter_format": {"s": "SFdJTw=="}, "T": {"type": "DT_FLOAT"}, "dilations": {"list": {"i": ["1", "1", "1", "1"]}}, "epsilon": {"f": 0.0}, "explicit_paddings": {"list": {}}, "fused_ops": {"list": {"s": ["Qmlhc0FkZA=="]}}, "data_format": {"s": "TkhXQw=="}, "num_host_args": {"i": "0"}}}, {"name": "PartitionedCall/model_19/tf.math.add_73/Add", "op": "_FusedConv2D", "input": ["PartitionedCall/model_19/tf.math.multiply_227/Mul", "15430", "15440"], "device": "/device:CPU:0", "attr": {"strides": {"list": {"i": ["1", "1", "1", "1"]}}, "num_args": {"i": "1"}, "num_host_args": {"i": "0"}, "dilations": {"list": {"i": ["1", "1", "1", "1"]}}, "leakyrelu_alpha": {"f": 0.2}, "padding": {"s": "U0FNRQ=="}, "data_format": {"s": "TkhXQw=="}, "TArgs": {"list": {"type": ["DT_FLOAT"]}}, "use_cudnn_on_gpu": {"b": true}, "explicit_paddings": {"list": {}}, "fused_ops": {"list": {"s": ["Qmlhc0FkZA=="]}}, "epsilon": {"f": 0.0}, "filter_format": {"s": "SFdJTw=="}, "T": {"type": "DT_FLOAT"}}}, {"name": "PartitionedCall/model_19/tf.math.sigmoid_56/Sigmoid", "op": "Sigmoid", "input": ["PartitionedCall/model_19/tf.math.add_72/Add"], "attr": {"T": {"type": "DT_FLOAT"}}}, {"name": "PartitionedCall/model_19/tf.concat_13/concat", "op": "ConcatV2", "input": ["PartitionedCall/model_19/tf.math.add_74/Add", "PartitionedCall/model_19/tf.math.add_75/Add", "PartitionedCall/model_19/tf.concat_13/concat/axis"], "attr": {"T": {"type": "DT_FLOAT"}, "Tidx": {"type": "DT_INT32"}, "N": {"i": "2"}}}, {"name": "PartitionedCall/model_19/tf.compat.v1.transpose_12/transpose", "op": "Transpose", "input": ["PartitionedCall/model_19/tf.math.add_73/Add", "PartitionedCall/model_19/tf.compat.v1.transpose_12/transpose/perm"], "attr": {"Tperm": {"type": "DT_INT32"}, "T": {"type": "DT_FLOAT"}}}, {"name": "PartitionedCall/model_19/tf.math.multiply_239/Mul", "op": "Mul", "input": ["PartitionedCall/model_19/tf.math.add_72/Add", "PartitionedCall/model_19/tf.math.sigmoid_56/Sigmoid"], "attr": {"T": {"type": "DT_FLOAT"}}}, {"name": "PartitionedCall/model_19/tf.compat.v1.transpose_17/transpose", "op": "Transpose", "input": ["PartitionedCall/model_19/tf.concat_13/concat", "PartitionedCall/model_19/tf.compat.v1.transpose_17/transpose/perm"], "attr": {"T": {"type": "DT_FLOAT"}, "Tperm": {"type": "DT_INT32"}}}, {"name": "PartitionedCall/model_19/tf.reshape_8/Reshape", "op": "Reshape", "input": ["PartitionedCall/model_19/tf.compat.v1.transpose_12/transpose", "PartitionedCall/model_19/tf.reshape_8/Reshape/shape"], "attr": {"T": {"type": "DT_FLOAT"}, "Tshape": {"type": "DT_INT32"}}}, {"name": "PartitionedCall/model_19/tf.strided_slice_14/StridedSlice", "op": "StridedSlice", "input": ["PartitionedCall/model_19/tf.math.multiply_239/Mul", "15300", "15302", "PartitionedCall/model_19/tf.strided_slice_14/ones_like"], "attr": {"Index": {"type": "DT_INT64"}, "T": {"type": "DT_FLOAT"}, "shrink_axis_mask": {"i": "0"}, "begin_mask": {"i": "15"}, "end_mask": {"i": "7"}, "ellipsis_mask": {"i": "0"}, "new_axis_mask": {"i": "0"}}}, {"name": "PartitionedCall/model_19/tf.strided_slice_15/StridedSlice", "op": "StridedSlice", "input": ["PartitionedCall/model_19/tf.math.multiply_239/Mul", "15288", "15290", "PartitionedCall/model_19/tf.strided_slice_15/ones_like"], "attr": {"Index": {"type": "DT_INT64"}, "begin_mask": {"i": "7"}, "ellipsis_mask": {"i": "0"}, "end_mask": {"i": "7"}, "shrink_axis_mask": {"i": "0"}, "new_axis_mask": {"i": "0"}, "T": {"type": "DT_FLOAT"}}}, {"name": "PartitionedCall/model_19/tf.reshape_11/Reshape", "op": "Reshape", "input": ["PartitionedCall/model_19/tf.compat.v1.transpose_17/transpose", "PartitionedCall/model_19/tf.reshape_11/Reshape/shape"], "attr": {"T": {"type": "DT_FLOAT"}, "Tshape": {"type": "DT_INT32"}}}, {"name": "PartitionedCall/model_19/tf.math.add_76/Add", "op": "_FusedConv2D", "input": ["PartitionedCall/model_19/tf.strided_slice_15/StridedSlice", "15292", "15294"], "device": "/device:CPU:0", "attr": {"strides": {"list": {"i": ["1", "1", "1", "1"]}}, "num_host_args": {"i": "0"}, "T": {"type": "DT_FLOAT"}, "padding": {"s": "U0FNRQ=="}, "dilations": {"list": {"i": ["1", "1", "1", "1"]}}, "epsilon": {"f": 0.0}, "fused_ops": {"list": {"s": ["Qmlhc0FkZA=="]}}, "data_format": {"s": "TkhXQw=="}, "explicit_paddings": {"list": {}}, "TArgs": {"list": {"type": ["DT_FLOAT"]}}, "num_args": {"i": "1"}, "filter_format": {"s": "SFdJTw=="}, "leakyrelu_alpha": {"f": 0.2}, "use_cudnn_on_gpu": {"b": true}}}, {"name": "PartitionedCall/model_19/tf.math.sigmoid_57/Sigmoid", "op": "Sigmoid", "input": ["PartitionedCall/model_19/tf.math.add_76/Add"], "attr": {"T": {"type": "DT_FLOAT"}}}, {"name": "PartitionedCall/model_19/tf.math.multiply_243/Mul", "op": "Mul", "input": ["PartitionedCall/model_19/tf.math.add_76/Add", "PartitionedCall/model_19/tf.math.sigmoid_57/Sigmoid"], "attr": {"T": {"type": "DT_FLOAT"}}}, {"name": "PartitionedCall/model_19/tf.math.add_77/Add", "op": "_FusedConv2D", "input": ["PartitionedCall/model_19/tf.math.multiply_243/Mul", "15296", "15298"], "device": "/device:CPU:0", "attr": {"epsilon": {"f": 0.0}, "num_args": {"i": "1"}, "fused_ops": {"list": {"s": ["Qmlhc0FkZA=="]}}, "data_format": {"s": "TkhXQw=="}, "num_host_args": {"i": "0"}, "leakyrelu_alpha": {"f": 0.2}, "dilations": {"list": {"i": ["1", "1", "1", "1"]}}, "strides": {"list": {"i": ["1", "1", "1", "1"]}}, "padding": {"s": "U0FNRQ=="}, "filter_format": {"s": "SFdJTw=="}, "TArgs": {"list": {"type": ["DT_FLOAT"]}}, "use_cudnn_on_gpu": {"b": true}, "T": {"type": "DT_FLOAT"}, "explicit_paddings": {"list": {}}}}, {"name": "PartitionedCall/model_19/tf.math.sigmoid_58/Sigmoid", "op": "Sigmoid", "input": ["PartitionedCall/model_19/tf.math.add_77/Add"], "attr": {"T": {"type": "DT_FLOAT"}}}, {"name": "PartitionedCall/model_19/tf.math.multiply_247/Mul", "op": "Mul", "input": ["PartitionedCall/model_19/tf.math.add_77/Add", "PartitionedCall/model_19/tf.math.sigmoid_58/Sigmoid"], "attr": {"T": {"type": "DT_FLOAT"}}}, {"name": "PartitionedCall/model_19/tf.concat_14/concat", "op": "ConcatV2", "input": ["PartitionedCall/model_19/tf.strided_slice_14/StridedSlice", "PartitionedCall/model_19/tf.strided_slice_15/StridedSlice", "PartitionedCall/model_19/tf.math.multiply_247/Mul", "PartitionedCall/model_19/tf.concat_14/concat/axis"], "attr": {"T": {"type": "DT_FLOAT"}, "Tidx": {"type": "DT_INT32"}, "N": {"i": "3"}}}, {"name": "PartitionedCall/model_19/tf.math.add_78/Add", "op": "_FusedConv2D", "input": ["PartitionedCall/model_19/tf.concat_14/concat", "15304", "15306"], "device": "/device:CPU:0", "attr": {"leakyrelu_alpha": {"f": 0.2}, "fused_ops": {"list": {"s": ["Qmlhc0FkZA=="]}}, "explicit_paddings": {"list": {}}, "epsilon": {"f": 0.0}, "TArgs": {"list": {"type": ["DT_FLOAT"]}}, "data_format": {"s": "TkhXQw=="}, "num_host_args": {"i": "0"}, "T": {"type": "DT_FLOAT"}, "filter_format": {"s": "SFdJTw=="}, "use_cudnn_on_gpu": {"b": true}, "strides": {"list": {"i": ["1", "1", "1", "1"]}}, "dilations": {"list": {"i": ["1", "1", "1", "1"]}}, "padding": {"s": "U0FNRQ=="}, "num_args": {"i": "1"}}}, {"name": "PartitionedCall/model_19/tf.math.sigmoid_59/Sigmoid", "op": "Sigmoid", "input": ["PartitionedCall/model_19/tf.math.add_78/Add"], "attr": {"T": {"type": "DT_FLOAT"}}}, {"name": "PartitionedCall/model_19/tf.math.multiply_251/Mul", "op": "Mul", "input": ["PartitionedCall/model_19/tf.math.add_78/Add", "PartitionedCall/model_19/tf.math.sigmoid_59/Sigmoid"], "attr": {"T": {"type": "DT_FLOAT"}}}, {"name": "PartitionedCall/model_19/tf.math.add_80/Add", "op": "_FusedConv2D", "input": ["PartitionedCall/model_19/tf.math.multiply_251/Mul", "15310", "15322"], "device": "/device:CPU:0", "attr": {"epsilon": {"f": 0.0}, "num_host_args": {"i": "0"}, "dilations": {"list": {"i": ["1", "1", "1", "1"]}}, "TArgs": {"list": {"type": ["DT_FLOAT"]}}, "fused_ops": {"list": {"s": ["Qmlhc0FkZA=="]}}, "use_cudnn_on_gpu": {"b": true}, "T": {"type": "DT_FLOAT"}, "explicit_paddings": {"list": {}}, "filter_format": {"s": "SFdJTw=="}, "data_format": {"s": "TkhXQw=="}, "num_args": {"i": "1"}, "leakyrelu_alpha": {"f": 0.2}, "padding": {"s": "U0FNRQ=="}, "strides": {"list": {"i": ["1", "1", "1", "1"]}}}}, {"name": "PartitionedCall/model_19/tf.math.add_81/Add", "op": "_FusedConv2D", "input": ["PartitionedCall/model_19/tf.math.multiply_251/Mul", "15308", "15320"], "device": "/device:CPU:0", "attr": {"T": {"type": "DT_FLOAT"}, "use_cudnn_on_gpu": {"b": true}, "data_format": {"s": "TkhXQw=="}, "explicit_paddings": {"list": {}}, "num_host_args": {"i": "0"}, "TArgs": {"list": {"type": ["DT_FLOAT"]}}, "num_args": {"i": "1"}, "epsilon": {"f": 0.0}, "padding": {"s": "U0FNRQ=="}, "leakyrelu_alpha": {"f": 0.2}, "dilations": {"list": {"i": ["1", "1", "1", "1"]}}, "strides": {"list": {"i": ["1", "1", "1", "1"]}}, "filter_format": {"s": "SFdJTw=="}, "fused_ops": {"list": {"s": ["Qmlhc0FkZA=="]}}}}, {"name": "PartitionedCall/model_19/tf.math.add_79/Add", "op": "_FusedConv2D", "input": ["PartitionedCall/model_19/tf.math.multiply_251/Mul", "15386", "15394"], "device": "/device:CPU:0", "attr": {"use_cudnn_on_gpu": {"b": true}, "padding": {"s": "U0FNRQ=="}, "T": {"type": "DT_FLOAT"}, "explicit_paddings": {"list": {}}, "num_host_args": {"i": "0"}, "data_format": {"s": "TkhXQw=="}, "fused_ops": {"list": {"s": ["Qmlhc0FkZA=="]}}, "leakyrelu_alpha": {"f": 0.2}, "TArgs": {"list": {"type": ["DT_FLOAT"]}}, "epsilon": {"f": 0.0}, "num_args": {"i": "1"}, "filter_format": {"s": "SFdJTw=="}, "dilations": {"list": {"i": ["1", "1", "1", "1"]}}, "strides": {"list": {"i": ["1", "1", "1", "1"]}}}}, {"name": "PartitionedCall/model_19/tf.math.sigmoid_61/Sigmoid", "op": "Sigmoid", "input": ["PartitionedCall/model_19/tf.math.add_80/Add"], "attr": {"T": {"type": "DT_FLOAT"}}}, {"name": "PartitionedCall/model_19/tf.math.sigmoid_62/Sigmoid", "op": "Sigmoid", "input": ["PartitionedCall/model_19/tf.math.add_81/Add"], "attr": {"T": {"type": "DT_FLOAT"}}}, {"name": "PartitionedCall/model_19/tf.math.sigmoid_60/Sigmoid", "op": "Sigmoid", "input": ["PartitionedCall/model_19/tf.math.add_79/Add"], "attr": {"T": {"type": "DT_FLOAT"}}}, {"name": "PartitionedCall/model_19/tf.math.multiply_259/Mul", "op": "Mul", "input": ["PartitionedCall/model_19/tf.math.add_80/Add", "PartitionedCall/model_19/tf.math.sigmoid_61/Sigmoid"], "attr": {"T": {"type": "DT_FLOAT"}}}, {"name": "PartitionedCall/model_19/tf.math.multiply_263/Mul", "op": "Mul", "input": ["PartitionedCall/model_19/tf.math.add_81/Add", "PartitionedCall/model_19/tf.math.sigmoid_62/Sigmoid"], "attr": {"T": {"type": "DT_FLOAT"}}}, {"name": "PartitionedCall/model_19/tf.math.multiply_255/Mul", "op": "Mul", "input": ["PartitionedCall/model_19/tf.math.add_79/Add", "PartitionedCall/model_19/tf.math.sigmoid_60/Sigmoid"], "attr": {"T": {"type": "DT_FLOAT"}}}, {"name": "PartitionedCall/model_19/tf.math.add_83/Add", "op": "_FusedConv2D", "input": ["PartitionedCall/model_19/tf.math.multiply_259/Mul", "15334", "15346"], "device": "/device:CPU:0", "attr": {"dilations": {"list": {"i": ["1", "1", "1", "1"]}}, "T": {"type": "DT_FLOAT"}, "num_args": {"i": "1"}, "leakyrelu_alpha": {"f": 0.2}, "epsilon": {"f": 0.0}, "filter_format": {"s": "SFdJTw=="}, "padding": {"s": "U0FNRQ=="}, "num_host_args": {"i": "0"}, "strides": {"list": {"i": ["1", "1", "1", "1"]}}, "explicit_paddings": {"list": {}}, "fused_ops": {"list": {"s": ["Qmlhc0FkZA=="]}}, "TArgs": {"list": {"type": ["DT_FLOAT"]}}, "data_format": {"s": "TkhXQw=="}, "use_cudnn_on_gpu": {"b": true}}}, {"name": "PartitionedCall/model_19/tf.math.add_84/Add", "op": "_FusedConv2D", "input": ["PartitionedCall/model_19/tf.math.multiply_263/Mul", "15332", "15344"], "device": "/device:CPU:0", "attr": {"strides": {"list": {"i": ["1", "1", "1", "1"]}}, "TArgs": {"list": {"type": ["DT_FLOAT"]}}, "fused_ops": {"list": {"s": ["Qmlhc0FkZA=="]}}, "use_cudnn_on_gpu": {"b": true}, "leakyrelu_alpha": {"f": 0.2}, "padding": {"s": "U0FNRQ=="}, "T": {"type": "DT_FLOAT"}, "data_format": {"s": "TkhXQw=="}, "dilations": {"list": {"i": ["1", "1", "1", "1"]}}, "epsilon": {"f": 0.0}, "explicit_paddings": {"list": {}}, "num_args": {"i": "1"}, "num_host_args": {"i": "0"}, "filter_format": {"s": "SFdJTw=="}}}, {"name": "PartitionedCall/model_19/tf.math.add_82/Add", "op": "_FusedConv2D", "input": ["PartitionedCall/model_19/tf.math.multiply_255/Mul", "15402", "15410"], "device": "/device:CPU:0", "attr": {"fused_ops": {"list": {"s": ["Qmlhc0FkZA=="]}}, "num_args": {"i": "1"}, "dilations": {"list": {"i": ["1", "1", "1", "1"]}}, "leakyrelu_alpha": {"f": 0.2}, "TArgs": {"list": {"type": ["DT_FLOAT"]}}, "use_cudnn_on_gpu": {"b": true}, "data_format": {"s": "TkhXQw=="}, "filter_format": {"s": "SFdJTw=="}, "explicit_paddings": {"list": {}}, "strides": {"list": {"i": ["1", "1", "1", "1"]}}, "padding": {"s": "U0FNRQ=="}, "epsilon": {"f": 0.0}, "T": {"type": "DT_FLOAT"}, "num_host_args": {"i": "0"}}}, {"name": "PartitionedCall/model_19/tf.math.sigmoid_64/Sigmoid", "op": "Sigmoid", "input": ["PartitionedCall/model_19/tf.math.add_83/Add"], "attr": {"T": {"type": "DT_FLOAT"}}}, {"name": "PartitionedCall/model_19/tf.math.sigmoid_65/Sigmoid", "op": "Sigmoid", "input": ["PartitionedCall/model_19/tf.math.add_84/Add"], "attr": {"T": {"type": "DT_FLOAT"}}}, {"name": "PartitionedCall/model_19/tf.math.sigmoid_63/Sigmoid", "op": "Sigmoid", "input": ["PartitionedCall/model_19/tf.math.add_82/Add"], "attr": {"T": {"type": "DT_FLOAT"}}}, {"name": "PartitionedCall/model_19/tf.math.multiply_271/Mul", "op": "Mul", "input": ["PartitionedCall/model_19/tf.math.add_83/Add", "PartitionedCall/model_19/tf.math.sigmoid_64/Sigmoid"], "attr": {"T": {"type": "DT_FLOAT"}}}, {"name": "PartitionedCall/model_19/tf.math.multiply_275/Mul", "op": "Mul", "input": ["PartitionedCall/model_19/tf.math.add_84/Add", "PartitionedCall/model_19/tf.math.sigmoid_65/Sigmoid"], "attr": {"T": {"type": "DT_FLOAT"}}}, {"name": "PartitionedCall/model_19/tf.math.multiply_267/Mul", "op": "Mul", "input": ["PartitionedCall/model_19/tf.math.add_82/Add", "PartitionedCall/model_19/tf.math.sigmoid_63/Sigmoid"], "attr": {"T": {"type": "DT_FLOAT"}}}, {"name": "PartitionedCall/model_19/tf.math.add_86/Add", "op": "_FusedConv2D", "input": ["PartitionedCall/model_19/tf.math.multiply_271/Mul", "15358", "15368"], "device": "/device:CPU:0", "attr": {"TArgs": {"list": {"type": ["DT_FLOAT"]}}, "dilations": {"list": {"i": ["1", "1", "1", "1"]}}, "use_cudnn_on_gpu": {"b": true}, "num_args": {"i": "1"}, "data_format": {"s": "TkhXQw=="}, "strides": {"list": {"i": ["1", "1", "1", "1"]}}, "T": {"type": "DT_FLOAT"}, "epsilon": {"f": 0.0}, "leakyrelu_alpha": {"f": 0.2}, "num_host_args": {"i": "0"}, "fused_ops": {"list": {"s": ["Qmlhc0FkZA=="]}}, "explicit_paddings": {"list": {}}, "filter_format": {"s": "SFdJTw=="}, "padding": {"s": "U0FNRQ=="}}}, {"name": "PartitionedCall/model_19/tf.math.add_87/Add", "op": "_FusedConv2D", "input": ["PartitionedCall/model_19/tf.math.multiply_275/Mul", "15356", "15370"], "device": "/device:CPU:0", "attr": {"strides": {"list": {"i": ["1", "1", "1", "1"]}}, "num_args": {"i": "1"}, "padding": {"s": "U0FNRQ=="}, "fused_ops": {"list": {"s": ["Qmlhc0FkZA=="]}}, "dilations": {"list": {"i": ["1", "1", "1", "1"]}}, "epsilon": {"f": 0.0}, "leakyrelu_alpha": {"f": 0.2}, "filter_format": {"s": "SFdJTw=="}, "data_format": {"s": "TkhXQw=="}, "use_cudnn_on_gpu": {"b": true}, "T": {"type": "DT_FLOAT"}, "explicit_paddings": {"list": {}}, "TArgs": {"list": {"type": ["DT_FLOAT"]}}, "num_host_args": {"i": "0"}}}, {"name": "PartitionedCall/model_19/tf.math.add_85/Add", "op": "_FusedConv2D", "input": ["PartitionedCall/model_19/tf.math.multiply_267/Mul", "15428", "15438"], "device": "/device:CPU:0", "attr": {"strides": {"list": {"i": ["1", "1", "1", "1"]}}, "filter_format": {"s": "SFdJTw=="}, "T": {"type": "DT_FLOAT"}, "TArgs": {"list": {"type": ["DT_FLOAT"]}}, "use_cudnn_on_gpu": {"b": true}, "explicit_paddings": {"list": {}}, "num_args": {"i": "1"}, "epsilon": {"f": 0.0}, "leakyrelu_alpha": {"f": 0.2}, "padding": {"s": "U0FNRQ=="}, "dilations": {"list": {"i": ["1", "1", "1", "1"]}}, "fused_ops": {"list": {"s": ["Qmlhc0FkZA=="]}}, "num_host_args": {"i": "0"}, "data_format": {"s": "TkhXQw=="}}}, {"name": "PartitionedCall/model_19/tf.concat_15/concat", "op": "ConcatV2", "input": ["PartitionedCall/model_19/tf.math.add_86/Add", "PartitionedCall/model_19/tf.math.add_87/Add", "PartitionedCall/model_19/tf.concat_15/concat/axis"], "attr": {"T": {"type": "DT_FLOAT"}, "Tidx": {"type": "DT_INT32"}, "N": {"i": "2"}}}, {"name": "PartitionedCall/model_19/tf.compat.v1.transpose_22/transpose", "op": "Transpose", "input": ["PartitionedCall/model_19/tf.math.add_85/Add", "PartitionedCall/model_19/tf.compat.v1.transpose_22/transpose/perm"], "attr": {"T": {"type": "DT_FLOAT"}, "Tperm": {"type": "DT_INT32"}}}, {"name": "PartitionedCall/model_19/tf.compat.v1.transpose_27/transpose", "op": "Transpose", "input": ["PartitionedCall/model_19/tf.concat_15/concat", "PartitionedCall/model_19/tf.compat.v1.transpose_27/transpose/perm"], "attr": {"T": {"type": "DT_FLOAT"}, "Tperm": {"type": "DT_INT32"}}}, {"name": "PartitionedCall/model_19/tf.reshape_14/Reshape", "op": "Reshape", "input": ["PartitionedCall/model_19/tf.compat.v1.transpose_22/transpose", "PartitionedCall/model_19/tf.reshape_14/Reshape/shape"], "attr": {"Tshape": {"type": "DT_INT32"}, "T": {"type": "DT_FLOAT"}}}, {"name": "PartitionedCall/model_19/tf.reshape_17/Reshape", "op": "Reshape", "input": ["PartitionedCall/model_19/tf.compat.v1.transpose_27/transpose", "PartitionedCall/model_19/tf.reshape_17/Reshape/shape"], "attr": {"Tshape": {"type": "DT_INT32"}, "T": {"type": "DT_FLOAT"}}}, {"name": "PartitionedCall/model_19/tf.concat_16/concat", "op": "ConcatV2", "input": ["PartitionedCall/model_19/tf.reshape_2/Reshape", "PartitionedCall/model_19/tf.reshape_8/Reshape", "PartitionedCall/model_19/tf.reshape_14/Reshape", "PartitionedCall/model_19/tf.concat_16/concat/axis"], "attr": {"N": {"i": "3"}, "T": {"type": "DT_FLOAT"}, "Tidx": {"type": "DT_INT32"}}}, {"name": "PartitionedCall/model_19/tf.concat_17/concat", "op": "ConcatV2", "input": ["PartitionedCall/model_19/tf.reshape_5/Reshape", "PartitionedCall/model_19/tf.reshape_11/Reshape", "PartitionedCall/model_19/tf.reshape_17/Reshape", "PartitionedCall/model_19/tf.concat_17/concat/axis"], "attr": {"N": {"i": "3"}, "T": {"type": "DT_FLOAT"}, "Tidx": {"type": "DT_INT32"}}}, {"name": "PartitionedCall/model_19/tf.strided_slice_16/StridedSlice", "op": "StridedSlice", "input": ["PartitionedCall/model_19/tf.concat_17/concat", "15380", "15382", "PartitionedCall/model_19/tf.strided_slice_16/StridedSlice/strides"], "attr": {"end_mask": {"i": "5"}, "T": {"type": "DT_FLOAT"}, "shrink_axis_mask": {"i": "0"}, "ellipsis_mask": {"i": "0"}, "Index": {"type": "DT_INT64"}, "new_axis_mask": {"i": "0"}, "begin_mask": {"i": "7"}}}, {"name": "PartitionedCall/model_19/tf.strided_slice_17/StridedSlice", "op": "StridedSlice", "input": ["PartitionedCall/model_19/tf.concat_17/concat", "15450", "15452", "PartitionedCall/model_19/tf.strided_slice_17/StridedSlice/strides"], "attr": {"shrink_axis_mask": {"i": "0"}, "Index": {"type": "DT_INT64"}, "T": {"type": "DT_FLOAT"}, "begin_mask": {"i": "5"}, "new_axis_mask": {"i": "0"}, "ellipsis_mask": {"i": "0"}, "end_mask": {"i": "5"}}}, {"name": "PartitionedCall/model_19/tf.reshape_20/Reshape", "op": "Reshape", "input": ["PartitionedCall/model_19/tf.strided_slice_16/StridedSlice", "PartitionedCall/model_19/tf.reshape_20/Reshape/shape"], "attr": {"T": {"type": "DT_FLOAT"}, "Tshape": {"type": "DT_INT32"}}}, {"name": "PartitionedCall/model_19/tf.math.sigmoid_66/Sigmoid", "op": "Sigmoid", "input": ["PartitionedCall/model_19/tf.strided_slice_17/StridedSlice"], "attr": {"T": {"type": "DT_FLOAT"}}}, {"name": "PartitionedCall/model_19/tf.compat.v1.transpose_34/transpose", "op": "Transpose", "input": ["PartitionedCall/model_19/tf.reshape_20/Reshape", "PartitionedCall/model_19/tf.compat.v1.transpose_34/transpose/perm"], "attr": {"T": {"type": "DT_FLOAT"}, "Tperm": {"type": "DT_INT32"}}}, {"name": "PartitionedCall/model_19/tf.compat.v1.transpose_35/transpose", "op": "Transpose", "input": ["PartitionedCall/model_19/tf.compat.v1.transpose_34/transpose", "PartitionedCall/model_19/tf.compat.v1.transpose_35/transpose/perm"], "attr": {"Tperm": {"type": "DT_INT32"}, "T": {"type": "DT_FLOAT"}}}, {"name": "PartitionedCall/model_19/tf.nn.softmax//model.22/dfl/Softmax", "op": "Softmax", "input": ["PartitionedCall/model_19/tf.compat.v1.transpose_35/transpose"], "attr": {"T": {"type": "DT_FLOAT"}}}, {"name": "PartitionedCall/model_19/tf.nn.convolution_75/convolution", "op": "Conv2D", "input": ["PartitionedCall/model_19/tf.nn.softmax//model.22/dfl/Softmax", "15408"], "device": "/device:CPU:0", "attr": {"use_cudnn_on_gpu": {"b": true}, "explicit_paddings": {"list": {}}, "strides": {"list": {"i": ["1", "1", "1", "1"]}}, "T": {"type": "DT_FLOAT"}, "dilations": {"list": {"i": ["1", "1", "1", "1"]}}, "data_format": {"s": "TkhXQw=="}, "padding": {"s": "U0FNRQ=="}}}, {"name": "PartitionedCall/model_19/tf.compat.v1.transpose_40/transpose", "op": "Transpose", "input": ["PartitionedCall/model_19/tf.nn.convolution_75/convolution", "PartitionedCall/model_19/tf.compat.v1.transpose_40/transpose/perm"], "attr": {"Tperm": {"type": "DT_INT32"}, "T": {"type": "DT_FLOAT"}}}, {"name": "PartitionedCall/model_19/tf.reshape_23/Reshape", "op": "Reshape", "input": ["PartitionedCall/model_19/tf.compat.v1.transpose_40/transpose", "PartitionedCall/model_19/tf.reshape_23/Reshape/shape"], "attr": {"Tshape": {"type": "DT_INT32"}, "T": {"type": "DT_FLOAT"}}}, {"name": "PartitionedCall/model_19/tf.strided_slice_19/StridedSlice", "op": "StridedSlice", "input": ["PartitionedCall/model_19/tf.reshape_23/Reshape", "15420", "15422", "PartitionedCall/model_19/tf.strided_slice_19/ones_like"], "attr": {"new_axis_mask": {"i": "0"}, "begin_mask": {"i": "5"}, "Index": {"type": "DT_INT64"}, "shrink_axis_mask": {"i": "0"}, "end_mask": {"i": "5"}, "T": {"type": "DT_FLOAT"}, "ellipsis_mask": {"i": "0"}}}, {"name": "PartitionedCall/model_19/tf.strided_slice_18/StridedSlice", "op": "StridedSlice", "input": ["PartitionedCall/model_19/tf.reshape_23/Reshape", "15424", "15426", "PartitionedCall/model_19/tf.strided_slice_18/ones_like"], "attr": {"shrink_axis_mask": {"i": "0"}, "end_mask": {"i": "5"}, "T": {"type": "DT_FLOAT"}, "begin_mask": {"i": "7"}, "new_axis_mask": {"i": "0"}, "Index": {"type": "DT_INT64"}, "ellipsis_mask": {"i": "0"}}}, {"name": "PartitionedCall/model_19/tf.math.add_88/Add", "op": "AddV2", "input": ["15434", "PartitionedCall/model_19/tf.strided_slice_19/StridedSlice"], "attr": {"T": {"type": "DT_FLOAT"}}}, {"name": "PartitionedCall/model_19/tf.math.subtract/Sub", "op": "Sub", "input": ["15436", "PartitionedCall/model_19/tf.strided_slice_18/StridedSlice"], "attr": {"T": {"type": "DT_FLOAT"}}}, {"name": "PartitionedCall/model_19/tf.math.add_89/Add", "op": "AddV2", "input": ["PartitionedCall/model_19/tf.math.subtract/Sub", "PartitionedCall/model_19/tf.math.add_88/Add"], "attr": {"T": {"type": "DT_FLOAT"}}}, {"name": "PartitionedCall/model_19/tf.math.subtract_1/Sub", "op": "Sub", "input": ["PartitionedCall/model_19/tf.math.add_88/Add", "PartitionedCall/model_19/tf.math.subtract/Sub"], "attr": {"T": {"type": "DT_FLOAT"}}}, {"name": "PartitionedCall/model_19/tf.math.divide/truediv", "op": "Mul", "input": ["PartitionedCall/model_19/tf.math.add_89/Add", "ConstantFolding/PartitionedCall/model_19/tf.math.divide/truediv_recip"], "attr": {"T": {"type": "DT_FLOAT"}}}, {"name": "PartitionedCall/model_19/tf.concat_21/concat", "op": "ConcatV2", "input": ["PartitionedCall/model_19/tf.math.divide/truediv", "PartitionedCall/model_19/tf.math.subtract_1/Sub", "PartitionedCall/model_19/tf.concat_21/concat/axis"], "attr": {"Tidx": {"type": "DT_INT32"}, "T": {"type": "DT_FLOAT"}, "N": {"i": "2"}}}, {"name": "PartitionedCall/model_19/tf.math.multiply_288/Mul", "op": "Mul", "input": ["PartitionedCall/model_19/tf.concat_21/concat", "PartitionedCall/model_19/tf.math.multiply_288/Mul/y"], "attr": {"T": {"type": "DT_FLOAT"}}}, {"name": "PartitionedCall/model_19/output0/concat", "op": "ConcatV2", "input": ["PartitionedCall/model_19/tf.math.multiply_288/Mul", "PartitionedCall/model_19/tf.math.sigmoid_66/Sigmoid", "PartitionedCall/model_19/tf.concat_16/concat", "PartitionedCall/model_19/output0/concat/axis"], "attr": {"Tidx": {"type": "DT_INT32"}, "T": {"type": "DT_FLOAT"}, "N": {"i": "3"}}}, {"name": "Identity", "op": "Identity", "input": ["PartitionedCall/model_19/output0/concat"], "attr": {"T": {"type": "DT_FLOAT"}}}], "library": {}, "versions": {"producer": 1482}}, "weightsManifest": [{"paths": ["group1-shard1of4.bin", "group1-shard2of4.bin", "group1-shard3of4.bin", "group1-shard4of4.bin"], "weights": [{"name": "ConstantFolding/PartitionedCall/model_19/tf.math.divide/truediv_recip", "shape": [1, 1, 1], "dtype": "float32"}, {"name": "15434", "shape": [1, 2, 8400], "dtype": "float32"}, {"name": "15420", "shape": [3], "dtype": "int32"}, {"name": "15422", "shape": [3], "dtype": "int32"}, {"name": "PartitionedCall/model_19/tf.strided_slice_19/ones_like", "shape": [3], "dtype": "int32"}, {"name": "15436", "shape": [1, 2, 8400], "dtype": "float32"}, {"name": "15380", "shape": [3], "dtype": "int32"}, {"name": "15382", "shape": [3], "dtype": "int32"}, {"name": "PartitionedCall/model_19/tf.strided_slice_16/StridedSlice/strides", "shape": [3], "dtype": "int32"}, {"name": "PartitionedCall/model_19/tf.reshape_20/Reshape/shape", "shape": [4], "dtype": "int32"}, {"name": "PartitionedCall/model_19/tf.compat.v1.transpose_34/transpose/perm", "shape": [4], "dtype": "int32"}, {"name": "PartitionedCall/model_19/tf.compat.v1.transpose_35/transpose/perm", "shape": [4], "dtype": "int32"}, {"name": "15408", "shape": [1, 1, 16, 1], "dtype": "float32"}, {"name": "PartitionedCall/model_19/tf.compat.v1.transpose_40/transpose/perm", "shape": [4], "dtype": "int32"}, {"name": "PartitionedCall/model_19/tf.reshape_23/Reshape/shape", "shape": [3], "dtype": "int32"}, {"name": "15424", "shape": [3], "dtype": "int32"}, {"name": "15426", "shape": [3], "dtype": "int32"}, {"name": "PartitionedCall/model_19/tf.strided_slice_18/ones_like", "shape": [3], "dtype": "int32"}, {"name": "PartitionedCall/model_19/tf.concat_21/concat/axis", "shape": [], "dtype": "int32"}, {"name": "PartitionedCall/model_19/tf.math.multiply_288/Mul/y", "shape": [1, 1, 8400], "dtype": "float32"}, {"name": "15318", "shape": [3, 3, 64, 64], "dtype": "float32"}, {"name": "15330", "shape": [64], "dtype": "float32"}, {"name": "15342", "shape": [3, 3, 64, 64], "dtype": "float32"}, {"name": "15354", "shape": [64], "dtype": "float32"}, {"name": "15366", "shape": [1, 1, 64, 64], "dtype": "float32"}, {"name": "15376", "shape": [64], "dtype": "float32"}, {"name": "15316", "shape": [3, 3, 64, 64], "dtype": "float32"}, {"name": "15328", "shape": [64], "dtype": "float32"}, {"name": "15340", "shape": [3, 3, 64, 64], "dtype": "float32"}, {"name": "15352", "shape": [64], "dtype": "float32"}, {"name": "15364", "shape": [1, 1, 64, 1], "dtype": "float32"}, {"name": "15378", "shape": [1], "dtype": "float32"}, {"name": "PartitionedCall/model_19/tf.concat_10/concat/axis", "shape": [], "dtype": "int32"}, {"name": "PartitionedCall/model_19/tf.compat.v1.transpose_7/transpose/perm", "shape": [4], "dtype": "int32"}, {"name": "PartitionedCall/model_19/tf.reshape_5/Reshape/shape", "shape": [3], "dtype": "int32"}, {"name": "15314", "shape": [3, 3, 128, 64], "dtype": "float32"}, {"name": "15326", "shape": [64], "dtype": "float32"}, {"name": "15338", "shape": [3, 3, 64, 64], "dtype": "float32"}, {"name": "15350", "shape": [64], "dtype": "float32"}, {"name": "15362", "shape": [1, 1, 64, 64], "dtype": "float32"}, {"name": "15372", "shape": [64], "dtype": "float32"}, {"name": "15312", "shape": [3, 3, 128, 64], "dtype": "float32"}, {"name": "15324", "shape": [64], "dtype": "float32"}, {"name": "15336", "shape": [3, 3, 64, 64], "dtype": "float32"}, {"name": "15348", "shape": [64], "dtype": "float32"}, {"name": "15360", "shape": [1, 1, 64, 1], "dtype": "float32"}, {"name": "15374", "shape": [1], "dtype": "float32"}, {"name": "PartitionedCall/model_19/tf.concat_13/concat/axis", "shape": [], "dtype": "int32"}, {"name": "PartitionedCall/model_19/tf.compat.v1.transpose_17/transpose/perm", "shape": [4], "dtype": "int32"}, {"name": "PartitionedCall/model_19/tf.reshape_11/Reshape/shape", "shape": [3], "dtype": "int32"}, {"name": "15310", "shape": [3, 3, 256, 64], "dtype": "float32"}, {"name": "15322", "shape": [64], "dtype": "float32"}, {"name": "15334", "shape": [3, 3, 64, 64], "dtype": "float32"}, {"name": "15346", "shape": [64], "dtype": "float32"}, {"name": "15358", "shape": [1, 1, 64, 64], "dtype": "float32"}, {"name": "15368", "shape": [64], "dtype": "float32"}, {"name": "15308", "shape": [3, 3, 256, 64], "dtype": "float32"}, {"name": "15320", "shape": [64], "dtype": "float32"}, {"name": "15332", "shape": [3, 3, 64, 64], "dtype": "float32"}, {"name": "15344", "shape": [64], "dtype": "float32"}, {"name": "15356", "shape": [1, 1, 64, 1], "dtype": "float32"}, {"name": "15370", "shape": [1], "dtype": "float32"}, {"name": "PartitionedCall/model_19/tf.concat_15/concat/axis", "shape": [], "dtype": "int32"}, {"name": "PartitionedCall/model_19/tf.compat.v1.transpose_27/transpose/perm", "shape": [4], "dtype": "int32"}, {"name": "PartitionedCall/model_19/tf.reshape_17/Reshape/shape", "shape": [3], "dtype": "int32"}, {"name": "PartitionedCall/model_19/tf.concat_17/concat/axis", "shape": [], "dtype": "int32"}, {"name": "15450", "shape": [3], "dtype": "int32"}, {"name": "15452", "shape": [3], "dtype": "int32"}, {"name": "PartitionedCall/model_19/tf.strided_slice_17/StridedSlice/strides", "shape": [3], "dtype": "int32"}, {"name": "15390", "shape": [3, 3, 64, 32], "dtype": "float32"}, {"name": "15398", "shape": [32], "dtype": "float32"}, {"name": "15406", "shape": [3, 3, 32, 32], "dtype": "float32"}, {"name": "15414", "shape": [32], "dtype": "float32"}, {"name": "15432", "shape": [1, 1, 32, 32], "dtype": "float32"}, {"name": "15442", "shape": [32], "dtype": "float32"}, {"name": "PartitionedCall/model_19/tf.compat.v1.transpose_2/transpose/perm", "shape": [4], "dtype": "int32"}, {"name": "PartitionedCall/model_19/tf.reshape_2/Reshape/shape", "shape": [3], "dtype": "int32"}, {"name": "15388", "shape": [3, 3, 128, 32], "dtype": "float32"}, {"name": "15396", "shape": [32], "dtype": "float32"}, {"name": "15404", "shape": [3, 3, 32, 32], "dtype": "float32"}, {"name": "15412", "shape": [32], "dtype": "float32"}, {"name": "15430", "shape": [1, 1, 32, 32], "dtype": "float32"}, {"name": "15440", "shape": [32], "dtype": "float32"}, {"name": "PartitionedCall/model_19/tf.compat.v1.transpose_12/transpose/perm", "shape": [4], "dtype": "int32"}, {"name": "PartitionedCall/model_19/tf.reshape_8/Reshape/shape", "shape": [3], "dtype": "int32"}, {"name": "15300", "shape": [4], "dtype": "int32"}, {"name": "15302", "shape": [4], "dtype": "int32"}, {"name": "PartitionedCall/model_19/tf.strided_slice_14/ones_like", "shape": [4], "dtype": "int32"}, {"name": "15270", "shape": [4], "dtype": "int32"}, {"name": "15272", "shape": [4], "dtype": "int32"}, {"name": "PartitionedCall/model_19/tf.strided_slice_12/ones_like", "shape": [4], "dtype": "int32"}, {"name": "15248", "shape": [4, 2], "dtype": "int32"}, {"name": "15250", "shape": [3, 3, 64, 64], "dtype": "float32"}, {"name": "15252", "shape": [64], "dtype": "float32"}, {"name": "PartitionedCall/model_19/tf.concat_9/concat/axis", "shape": [], "dtype": "int32"}, {"name": "15254", "shape": [1, 1, 192, 128], "dtype": "float32"}, {"name": "15256", "shape": [128], "dtype": "float32"}, {"name": "15258", "shape": [4], "dtype": "int32"}, {"name": "15260", "shape": [4], "dtype": "int32"}, {"name": "PartitionedCall/model_19/tf.strided_slice_13/ones_like", "shape": [4], "dtype": "int32"}, {"name": "15262", "shape": [3, 3, 64, 64], "dtype": "float32"}, {"name": "15264", "shape": [64], "dtype": "float32"}, {"name": "15266", "shape": [3, 3, 64, 64], "dtype": "float32"}, {"name": "15268", "shape": [64], "dtype": "float32"}, {"name": "PartitionedCall/model_19/tf.concat_11/concat/axis", "shape": [], "dtype": "int32"}, {"name": "15274", "shape": [1, 1, 192, 128], "dtype": "float32"}, {"name": "15276", "shape": [128], "dtype": "float32"}, {"name": "15278", "shape": [4, 2], "dtype": "int32"}, {"name": "15280", "shape": [3, 3, 128, 128], "dtype": "float32"}, {"name": "15282", "shape": [128], "dtype": "float32"}, {"name": "PartitionedCall/model_19/tf.concat_12/concat/axis", "shape": [], "dtype": "int32"}, {"name": "15284", "shape": [1, 1, 384, 256], "dtype": "float32"}, {"name": "15286", "shape": [256], "dtype": "float32"}, {"name": "15288", "shape": [4], "dtype": "int32"}, {"name": "15290", "shape": [4], "dtype": "int32"}, {"name": "PartitionedCall/model_19/tf.strided_slice_15/ones_like", "shape": [4], "dtype": "int32"}, {"name": "15292", "shape": [3, 3, 128, 128], "dtype": "float32"}, {"name": "15294", "shape": [128], "dtype": "float32"}, {"name": "15296", "shape": [3, 3, 128, 128], "dtype": "float32"}, {"name": "15298", "shape": [128], "dtype": "float32"}, {"name": "PartitionedCall/model_19/tf.concat_14/concat/axis", "shape": [], "dtype": "int32"}, {"name": "15304", "shape": [1, 1, 384, 256], "dtype": "float32"}, {"name": "15306", "shape": [256], "dtype": "float32"}, {"name": "15386", "shape": [3, 3, 256, 32], "dtype": "float32"}, {"name": "15394", "shape": [32], "dtype": "float32"}, {"name": "15402", "shape": [3, 3, 32, 32], "dtype": "float32"}, {"name": "15410", "shape": [32], "dtype": "float32"}, {"name": "15428", "shape": [1, 1, 32, 32], "dtype": "float32"}, {"name": "15438", "shape": [32], "dtype": "float32"}, {"name": "PartitionedCall/model_19/tf.compat.v1.transpose_22/transpose/perm", "shape": [4], "dtype": "int32"}, {"name": "PartitionedCall/model_19/tf.reshape_14/Reshape/shape", "shape": [3], "dtype": "int32"}, {"name": "PartitionedCall/model_19/tf.concat_16/concat/axis", "shape": [], "dtype": "int32"}, {"name": "PartitionedCall/model_19/output0/concat/axis", "shape": [], "dtype": "int32"}, {"name": "PartitionedCall/model_19/tf.nn.conv2d_transpose/conv2d_transpose/input_sizes", "shape": [4], "dtype": "int32"}, {"name": "15400", "shape": [2, 2, 64, 64], "dtype": "float32"}, {"name": "15240", "shape": [4], "dtype": "int32"}, {"name": "15242", "shape": [4], "dtype": "int32"}, {"name": "PartitionedCall/model_19/tf.strided_slice_10/ones_like", "shape": [4], "dtype": "int32"}, {"name": "15216", "shape": [4], "dtype": "int32"}, {"name": "15218", "shape": [4], "dtype": "int32"}, {"name": "PartitionedCall/model_19/tf.strided_slice_8/ones_like", "shape": [4], "dtype": "int32"}, {"name": "15184", "shape": [4], "dtype": "int32"}, {"name": "15186", "shape": [4], "dtype": "int32"}, {"name": "PartitionedCall/model_19/tf.strided_slice_6/ones_like", "shape": [4], "dtype": "int32"}, {"name": "15162", "shape": [4, 2], "dtype": "int32"}, {"name": "15164", "shape": [3, 3, 128, 256], "dtype": "float32"}, {"name": "15166", "shape": [256], "dtype": "float32"}, {"name": "15168", "shape": [1, 1, 256, 256], "dtype": "float32"}, {"name": "15170", "shape": [256], "dtype": "float32"}, {"name": "15172", "shape": [4], "dtype": "int32"}, {"name": "15174", "shape": [4], "dtype": "int32"}, {"name": "PartitionedCall/model_19/tf.strided_slice_7/ones_like", "shape": [4], "dtype": "int32"}, {"name": "15176", "shape": [3, 3, 128, 128], "dtype": "float32"}, {"name": "15178", "shape": [128], "dtype": "float32"}, {"name": "15180", "shape": [3, 3, 128, 128], "dtype": "float32"}, {"name": "15182", "shape": [128], "dtype": "float32"}, {"name": "PartitionedCall/model_19/tf.concat_3/concat/axis", "shape": [], "dtype": "int32"}, {"name": "15188", "shape": [1, 1, 384, 256], "dtype": "float32"}, {"name": "15190", "shape": [256], "dtype": "float32"}, {"name": "15192", "shape": [1, 1, 256, 128], "dtype": "float32"}, {"name": "15194", "shape": [128], "dtype": "float32"}, {"name": "PartitionedCall/model_19/tf.concat_4/concat/axis", "shape": [], "dtype": "int32"}, {"name": "15196", "shape": [1, 1, 512, 256], "dtype": "float32"}, {"name": "15198", "shape": [256], "dtype": "float32"}, {"name": "PartitionedCall/model_19/tf.image.resize/resize/size", "shape": [2], "dtype": "int32"}, {"name": "15154", "shape": [4], "dtype": "int32"}, {"name": "15156", "shape": [4], "dtype": "int32"}, {"name": "PartitionedCall/model_19/tf.strided_slice_4/ones_like", "shape": [4], "dtype": "int32"}, {"name": "15124", "shape": [4, 2], "dtype": "int32"}, {"name": "15126", "shape": [3, 3, 64, 128], "dtype": "float32"}, {"name": "15128", "shape": [128], "dtype": "float32"}, {"name": "15130", "shape": [1, 1, 128, 128], "dtype": "float32"}, {"name": "15132", "shape": [128], "dtype": "float32"}, {"name": "15134", "shape": [4], "dtype": "int32"}, {"name": "15136", "shape": [4], "dtype": "int32"}, {"name": "PartitionedCall/model_19/tf.strided_slice_5/ones_like", "shape": [4], "dtype": "int32"}, {"name": "15138", "shape": [3, 3, 64, 64], "dtype": "float32"}, {"name": "15140", "shape": [64], "dtype": "float32"}, {"name": "15142", "shape": [3, 3, 64, 64], "dtype": "float32"}, {"name": "15144", "shape": [64], "dtype": "float32"}, {"name": "15146", "shape": [3, 3, 64, 64], "dtype": "float32"}, {"name": "15148", "shape": [64], "dtype": "float32"}, {"name": "15150", "shape": [3, 3, 64, 64], "dtype": "float32"}, {"name": "15152", "shape": [64], "dtype": "float32"}, {"name": "PartitionedCall/model_19/tf.concat_2/concat/axis", "shape": [], "dtype": "int32"}, {"name": "15158", "shape": [1, 1, 256, 128], "dtype": "float32"}, {"name": "15160", "shape": [128], "dtype": "float32"}, {"name": "PartitionedCall/model_19/tf.concat_5/concat/axis", "shape": [], "dtype": "int32"}, {"name": "15200", "shape": [1, 1, 384, 128], "dtype": "float32"}, {"name": "15202", "shape": [128], "dtype": "float32"}, {"name": "15204", "shape": [4], "dtype": "int32"}, {"name": "15206", "shape": [4], "dtype": "int32"}, {"name": "PartitionedCall/model_19/tf.strided_slice_9/ones_like", "shape": [4], "dtype": "int32"}, {"name": "15208", "shape": [3, 3, 64, 64], "dtype": "float32"}, {"name": "15210", "shape": [64], "dtype": "float32"}, {"name": "15212", "shape": [3, 3, 64, 64], "dtype": "float32"}, {"name": "15214", "shape": [64], "dtype": "float32"}, {"name": "PartitionedCall/model_19/tf.concat_6/concat/axis", "shape": [], "dtype": "int32"}, {"name": "15220", "shape": [1, 1, 192, 128], "dtype": "float32"}, {"name": "15222", "shape": [128], "dtype": "float32"}, {"name": "PartitionedCall/model_19/tf.image.resize_1/resize/size", "shape": [2], "dtype": "int32"}, {"name": "15116", "shape": [4], "dtype": "int32"}, {"name": "15118", "shape": [4], "dtype": "int32"}, {"name": "PartitionedCall/model_19/tf.strided_slice_2/ones_like", "shape": [4], "dtype": "int32"}, {"name": "15078", "shape": [4], "dtype": "int32"}, {"name": "15080", "shape": [4], "dtype": "int32"}, {"name": "PartitionedCall/model_19/tf.strided_slice/ones_like", "shape": [4], "dtype": "int32"}, {"name": "15050", "shape": [4, 2], "dtype": "int32"}, {"name": "15052", "shape": [3, 3, 3, 16], "dtype": "float32"}, {"name": "15054", "shape": [16], "dtype": "float32"}, {"name": "15056", "shape": [4, 2], "dtype": "int32"}, {"name": "15058", "shape": [3, 3, 16, 32], "dtype": "float32"}, {"name": "15060", "shape": [32], "dtype": "float32"}, {"name": "15062", "shape": [1, 1, 32, 32], "dtype": "float32"}, {"name": "15064", "shape": [32], "dtype": "float32"}, {"name": "15066", "shape": [4], "dtype": "int32"}, {"name": "15068", "shape": [4], "dtype": "int32"}, {"name": "PartitionedCall/model_19/tf.strided_slice_1/ones_like", "shape": [4], "dtype": "int32"}, {"name": "15070", "shape": [3, 3, 16, 16], "dtype": "float32"}, {"name": "15072", "shape": [16], "dtype": "float32"}, {"name": "15074", "shape": [3, 3, 16, 16], "dtype": "float32"}, {"name": "15076", "shape": [16], "dtype": "float32"}, {"name": "PartitionedCall/model_19/tf.concat/concat/axis", "shape": [], "dtype": "int32"}, {"name": "15082", "shape": [1, 1, 48, 32], "dtype": "float32"}, {"name": "15084", "shape": [32], "dtype": "float32"}, {"name": "15086", "shape": [4, 2], "dtype": "int32"}, {"name": "15088", "shape": [3, 3, 32, 64], "dtype": "float32"}, {"name": "15090", "shape": [64], "dtype": "float32"}, {"name": "15092", "shape": [1, 1, 64, 64], "dtype": "float32"}, {"name": "15094", "shape": [64], "dtype": "float32"}, {"name": "15096", "shape": [4], "dtype": "int32"}, {"name": "15098", "shape": [4], "dtype": "int32"}, {"name": "PartitionedCall/model_19/tf.strided_slice_3/ones_like", "shape": [4], "dtype": "int32"}, {"name": "15100", "shape": [3, 3, 32, 32], "dtype": "float32"}, {"name": "15102", "shape": [32], "dtype": "float32"}, {"name": "15104", "shape": [3, 3, 32, 32], "dtype": "float32"}, {"name": "15106", "shape": [32], "dtype": "float32"}, {"name": "15108", "shape": [3, 3, 32, 32], "dtype": "float32"}, {"name": "15110", "shape": [32], "dtype": "float32"}, {"name": "15112", "shape": [3, 3, 32, 32], "dtype": "float32"}, {"name": "15114", "shape": [32], "dtype": "float32"}, {"name": "PartitionedCall/model_19/tf.concat_1/concat/axis", "shape": [], "dtype": "int32"}, {"name": "15120", "shape": [1, 1, 128, 64], "dtype": "float32"}, {"name": "15122", "shape": [64], "dtype": "float32"}, {"name": "PartitionedCall/model_19/tf.concat_7/concat/axis", "shape": [], "dtype": "int32"}, {"name": "15224", "shape": [1, 1, 192, 64], "dtype": "float32"}, {"name": "15226", "shape": [64], "dtype": "float32"}, {"name": "15228", "shape": [4], "dtype": "int32"}, {"name": "15230", "shape": [4], "dtype": "int32"}, {"name": "PartitionedCall/model_19/tf.strided_slice_11/ones_like", "shape": [4], "dtype": "int32"}, {"name": "15232", "shape": [3, 3, 32, 32], "dtype": "float32"}, {"name": "15234", "shape": [32], "dtype": "float32"}, {"name": "15236", "shape": [3, 3, 32, 32], "dtype": "float32"}, {"name": "15238", "shape": [32], "dtype": "float32"}, {"name": "PartitionedCall/model_19/tf.concat_8/concat/axis", "shape": [], "dtype": "int32"}, {"name": "15244", "shape": [1, 1, 96, 64], "dtype": "float32"}, {"name": "15246", "shape": [64], "dtype": "float32"}, {"name": "15384", "shape": [3, 3, 64, 64], "dtype": "float32"}, {"name": "15392", "shape": [64], "dtype": "float32"}, {"name": "PartitionedCall/model_19/tf.math.add_52/Add/y", "shape": [64], "dtype": "float32"}, {"name": "15416", "shape": [3, 3, 64, 64], "dtype": "float32"}, {"name": "15418", "shape": [64], "dtype": "float32"}, {"name": "15444", "shape": [1, 1, 64, 32], "dtype": "float32"}, {"name": "15448", "shape": [32], "dtype": "float32"}]}]}